Top - MTM - LEFT/hand-gesture-recognition-mediapipe-main - Copy/model/keypoint_classifier/keypoint_classifier.tflite (tflite, 31668 bytes, 14 tensors)

sequential_6/lstm_13/Read_2/ReadVariableOp f4 [40]
000000 a0 aa f0 3e 20 6c 15 3f bf 69 7c 3f e2 13 78 3f
       0.47005177 0.5836811 0.98598856 0.9690534
000010 02 6d 76 3f 47 91 59 3f 97 11 24 3e cd 5c 8a 3e
       0.9626008 0.849873 0.16022335 0.27023926
000020 c4 a0 33 3f ce 43 68 3c 00 00 80 3f 00 00 80 3f
       0.70167184 0.014176322 1.0 1.0
000030 00 00 80 3f 00 00 80 3f 00 00 80 3f 00 00 80 3f
       1.0 1.0 1.0 1.0
000040 00 00 80 3f 00 00 80 3f 00 00 80 3f 00 00 80 3f
       1.0 1.0 1.0 1.0
000050 20 a7 11 3e 47 09 ff bd c5 61 14 be ab 43 35 be
       0.1422391 -0.124529414 -0.14490421 -0.17701595
000060 8f 9f 97 3c 82 43 d4 3c d5 bb 00 3e ee eb 67 3e
       0.0185087 0.025911096 0.12571652 0.22648594
000070 16 d5 d5 3d 69 98 91 3d 4e b3 1e 3f f5 42 c3 3e
       0.104410335 0.07109148 0.6199235 0.38137022
000080 24 9d 7d 3f ec 47 a4 3f 37 d5 61 3f 17 19 40 3f
       0.990679 1.2834449 0.88215965 0.75038284
000090 fd ac cb 3d 02 34 63 3e 55 d7 85 3f 44 0b 03 3e
       0.09945104 0.22187808 1.0456339 0.12797266

sequential_6/lstm_12/Read_2/ReadVariableOp f4 [40]
000000 69 fd 59 3e 04 72 c7 3d c2 d5 9b 3d c1 15 76 3f
       0.21288075 0.09738544 0.076091304 0.96126944
000010 04 2d 97 bd 60 dc 3b 3f 9c 74 72 3d b9 86 b4 3e
       -0.07381633 0.7338314 0.05919324 0.35259035
000020 be b7 0a 3f 29 67 d3 bd 00 00 80 3f 00 00 80 3f
       0.5418662 -0.103224106 1.0 1.0
000030 00 00 80 3f 00 00 80 3f 00 00 80 3f 00 00 80 3f
       1.0 1.0 1.0 1.0
000040 00 00 80 3f 00 00 80 3f 00 00 80 3f 00 00 80 3f
       1.0 1.0 1.0 1.0
000050 77 4f a1 bc 43 5a 2a 3e 34 3e 44 3e a4 4b 55 3d
       -0.019691212 0.16635995 0.19164354 0.05207409
000060 07 c1 7c bd ad 11 d3 bc f2 42 f3 bd 65 bd 2a bc
       -0.061707523 -0.025765264 -0.11878003 -0.010421132
000070 91 cf 24 be ea cc 9e bd 4a fa 00 3e 79 f0 c5 3e
       -0.16094805 -0.07753928 0.12595478 0.3866003
000080 6b 1c 51 3c 3b 34 81 3e 5a d9 89 bc a8 4b 20 3f
       0.012763123 0.2523516 -0.016827274 0.6261544
000090 12 c4 c0 3d 87 05 78 3e cf 3e 3f 3e 81 bc 22 be
       0.094123974 0.24220859 0.18676303 -0.15892221

sequential_6/dense_26/BiasAdd/ReadVariableOp f4 [7]
000000 6d 65 54 bf fc 38 0c bf 87 84 53 3e 5c cf fa bd
       -0.82967263 -0.5477445 0.20656024 -0.12246582
000010 9d fe 7a 3e 8e 02 4a 3d 91 bc db 3e
       0.2451119 0.049318843 0.42917302

sequential_6/dense_25/BiasAdd/ReadVariableOp f4 [10]
000000 45 c7 7e 3c bd d2 2b 3e 95 ef 91 bb f2 95 49 3f
       0.015550439 0.16779609 -0.004453609 0.78744423
000010 56 21 4a 3f 55 cd 95 3f 28 81 15 3f 42 b4 26 3f
       0.78957117 1.1703287 0.584002 0.651188
000020 56 01 24 3d cd 5a 12 bd
       0.040040337 -0.035731126

sequential_6/dense_24/BiasAdd/ReadVariableOp f4 [20]
000000 0f 47 bd 3d 37 bf a5 bd 24 52 be bd ab 43 97 3d
       0.09242069 -0.08093112 -0.09293011 0.073859535
000010 f2 3c 4a be d7 8a eb 3b bb 27 ff bc 94 f5 0e 3e
       -0.19749811 0.007188182 -0.031146875 0.13960868
000020 51 02 e8 bd bc f4 ae bd eb 73 ce 3d 29 12 e1 bd
       -0.11328567 -0.08542773 0.10080703 -0.10989792
000030 2a 76 89 bc 35 6a ae 3a 25 3c 85 3d a8 1a 12 bc
       -0.016779978 0.0013306799 0.06505612 -0.008917488
000040 f8 e7 d9 3d 28 0f 8e 3d 99 e8 92 bd 78 42 84 3c
       0.10639948 0.069364846 -0.07173271 0.016144976

sequential_6/dense_24/MatMul f4 [20, 10]
000000 54 88 b6 bc 61 8c ba bf 8e 85 5e 3e 6c cb e7 bd
       -0.022281803 -1.457409 0.21730635 -0.113180965
000010 00 ec c5 3f bd 7c bd be 96 c6 bb be aa 97 9f 3e
       1.5462646 -0.3700923 -0.36674947 0.31170398
000020 b5 a8 59 3f e8 19 69 3e e0 4a ae bf fa 95 c7 3c
       0.8502305 0.22763789 -1.36166 0.024363507
000030 14 ea 76 3f 53 5a 9a be 21 8c a3 3e df 45 17 bf
       0.96450925 -0.30147037 0.31942847 -0.5909099
000040 04 55 84 3e 30 2a 39 bf 98 dd 9d be 2f 56 f9 3f
       0.25846112 -0.7233 -0.30833125 1.9479426
000050 88 75 81 3e f8 9f 14 3e e0 2e a9 bf 93 eb 08 bf
       0.25284982 0.14514148 -1.321743 -0.5348446
000060 1b cd 7d bf c1 b9 20 40 36 e3 46 3d fb d4 cb 3e
       -0.9914109 2.5113375 0.04855653 0.3981093
000070 62 8a 3d bd 11 ad bb be 88 fe 13 bf 06 33 d0 bf
       -0.04627455 -0.36655477 -0.5781026 -1.6265571
000080 f2 94 2d 3e b3 c1 2a be 55 de ee 3f 54 4e f5 be
       0.1695135 -0.16675453 1.86616 -0.47911322
000090 8d ca 3a bf 86 6a 7b 3e 89 52 4a 3f bd b6 16 3e
       -0.7296532 0.24552354 0.7903219 0.14718147
0000a0 49 4d 7d bf 06 c8 da bc 54 3f 90 3f 80 eb 4b be
       -0.9894605 -0.026706707 1.1269326 -0.19914055
0000b0 22 53 96 3e 9a 0f 36 bf af 36 4e 3e 5a f1 b5 bf
       0.293603 -0.71117556 0.20138048 -1.421428
0000c0 da 01 83 be da 86 cf 3f ea c5 37 3e 74 3e a1 bf
       -0.2558735 1.6213028 0.17946592 -1.2597184
0000d0 35 38 4f bf 56 d8 7d be 72 28 2e 3e 61 d0 0b 3e
       -0.8094514 -0.24789557 0.17007616 0.13653709
0000e0 f1 38 11 bf 54 4a 8d 3f ea d9 e4 3f 04 14 c0 bd
       -0.5672751 1.1038308 1.7879002 -0.09378818
0000f0 2e 83 7c 3e 98 a8 f5 3d df 0d fa bf f0 35 d5 be
       0.24659416 0.11995047 -1.9535483 -0.41642714
000100 ef c5 4d bf c0 15 f4 3f 65 61 66 3d bd 41 91 3f
       -0.8038015 1.9069138 0.056245226 1.1348187
000110 e8 bb fd 3d f2 3c 8e bc 97 7f a0 be 03 87 ad bf
       0.12389356 -0.017363045 -0.31347343 -1.3556827
000120 58 50 53 bf ab c1 52 bf 83 17 c6 3e 8d a0 0f 3f
       -0.8254447 -0.82326764 0.38689813 0.56104356
000130 67 95 f6 be 79 4c 49 3f 1b 87 d4 3f 5d 0d d9 3c
       -0.4816086 0.78632313 1.6603731 0.02649563
000140 72 bc 3e bf d3 ca 2b 3d a3 59 ce be 87 38 34 c0
       -0.74506295 0.041941475 -0.40302762 -2.8159502
000150 02 19 d9 3d cf 05 72 3f 2f 20 7f 3e 18 c2 46 3f
       0.10600473 0.94540113 0.24914621 0.77639914
000160 45 32 d4 be be 68 0d 3f 29 03 98 3e 8f 0b 10 c0
       -0.41444603 0.5523795 0.2968991 -2.2507055
000170 fd 28 5e 3f a5 2d 02 3f be 07 14 3f 4a 76 08 bf
       0.86781293 0.508509 0.57824314 -0.53305495
000180 10 ac 86 bf 7b d6 c8 3f 6e b9 fc 3f 2a 4d 24 bf
       -1.0521259 1.5690454 1.9744089 -0.64180243
000190 21 d3 03 c0 56 58 1d 3f b1 89 7c 3c 0a 6c 73 be
       -2.0597613 0.61462915 0.015413688 -0.23771682
0001a0 b9 9d 46 3e 27 58 54 be 06 dc 0d 40 e2 ae ac 3e
       0.19396104 -0.20736752 2.2165542 0.33727175
0001b0 66 0c 6e bf bc 10 3c 40 f9 68 2a 3f cd 87 e0 bf
       -0.9298767 2.9385214 0.66566426 -1.7541443
0001c0 4a 33 45 3f f3 02 cf 3e e4 a2 22 3f 41 cd 53 bf
       0.77031386 0.40431938 0.635298 -0.8273507
0001d0 ec 1b a7 bf e9 01 b0 3f ca d2 f8 3f 48 b0 b6 be
       -1.3055396 1.3750583 1.9439328 -0.35681367
0001e0 cf 57 cc 3e e2 77 a2 bf e4 2a 80 bf ab 4c 0d 3d
       0.39910743 -1.2692835 -1.0013089 0.034496944
0001f0 93 2b 60 3e 0b ae da bc 87 11 3a bf 61 90 7c 3f
       0.21891622 -0.026694318 -0.72682995 0.98657805
000200 3e 19 fc 3f 5a 5a 8c be 7d d9 99 3c 16 83 ad 3d
       1.9695203 -0.27412683 0.018780464 0.08472268
000210 aa 35 f9 bf b5 65 ad bf 95 a6 d0 be c2 49 bc 3f
       -1.9469502 -1.3546664 -0.40752092 1.4710009
000220 26 1b 1f 3c 05 33 a2 3f 8e 16 2a bd c6 b4 55 bd
       0.009711063 1.267182 -0.041525416 -0.052174352
000230 0d d3 b0 bf d5 64 d8 3e f0 ba a7 3b 5a a4 6f be
       -1.3814408 0.4226443 0.0051187202 -0.23402539
000240 6d f2 9d bd 66 42 2c 3d e2 ce 14 40 cd ed 7b 3e
       -0.07712255 0.04205551 2.3251271 0.24602433
000250 9d c1 ac be a7 50 f5 3f c1 9e ef bd 90 ef c8 3d
       -0.33741465 1.9165238 -0.11700202 0.09811318
000260 8e 3a 6e bf 09 57 2f c0 88 c3 10 bd d1 78 7e 3f
       -0.930581 -2.7396872 -0.035342723 0.994031
000270 dd 18 10 3c a8 78 71 3f c5 9a 35 be e9 cb 0e 3f
       0.00879499 0.9432473 -0.17734821 0.5577989
000280 f3 6a e8 3d f6 1e 1d bf f1 4c c4 bf fc 92 df bc
       0.11348524 -0.6137537 -1.5335981 -0.027291767
000290 8e f6 e9 3e f6 89 bc be e4 41 b0 bf 9b fb 6b 3c
       0.4569592 -0.36824006 -1.3770108 0.014403249
0002a0 65 be ee 3e a2 a5 a2 be 46 0e c9 bf ee 48 14 3f
       0.46629634 -0.31766993 -1.5707481 0.5792378
0002b0 83 b1 dc 3d 57 61 51 be 25 c0 9e 3c d7 0a d2 3d
       0.10776045 -0.20447288 0.019378731 0.10255974
0002c0 2c d4 1e 40 a3 e6 b0 3e 1f d5 03 bf 01 3a fc 3f
       2.4817 0.34550962 -0.5149707 1.9705201
0002d0 77 5d 98 bf 7d 9b f6 bd e1 c4 07 3e 7c 1d 15 bf
       -1.1903523 -0.12041376 0.13258697 -0.58248115
0002e0 51 86 73 3f 22 ed ce be 32 8f a5 be fd 3e bd 3d
       0.95126826 -0.40415293 -0.32335812 0.0924053
0002f0 5d 64 38 3d 81 1a 70 3f 35 ad c7 be 02 3d 71 b9
       0.04501759 0.9379044 -0.38999334 -0.00023006278
000300 d6 a6 2b bf 62 1c 27 c0 36 c2 3c 3e 84 4b 85 3f
       -0.67051446 -2.6111073 0.1843346 1.041367
000310 d4 0c 59 3e b4 5a 23 3f ee 5f ef bd 54 5f e1 3e
       0.211963 0.63810277 -0.11688219 0.44018042

sequential_6/dense_25/MatMul f4 [10, 20]
000000 a3 86 fa 3d cc 17 b5 be 88 27 15 bf fe 2a da bd
       0.12232711 -0.35369718 -0.58263445 -0.10652731
000010 5d 52 e4 3d 83 29 1c 3f e6 a9 62 3e d7 89 dd 3e
       0.11148522 0.6100084 0.22135124 0.43269226
000020 6e 7f 76 3f 56 e8 b1 be 6d f5 eb be 4a 7c 5d bf
       0.9628819 -0.3474757 -0.46085683 -0.86517775
000030 00 c4 05 3f 0e 89 0b 3e 54 5d 57 3f 82 2a 88 3f
       0.522522 0.13626501 0.8412678 1.0637972
000040 b5 6a ff bd 70 2a e0 3e a1 44 83 3e 79 6f 97 3f
       -0.124715246 0.43782377 0.25638297 1.1830894
000050 70 20 11 3d b5 40 62 3f 72 f8 9f be 00 ed 51 3e
       0.035431325 0.88379985 -0.31244236 0.20500565
000060 b0 52 98 3f 36 74 20 3f 3b 05 9f bd 35 a8 6d bd
       1.1900234 0.62677324 -0.077646695 -0.058021743
000070 d1 0e 8a 3f 61 fa 39 3d 35 80 85 3f b2 2b 36 3f
       1.0785772 0.045404796 1.0429751 0.71160424
000080 18 dd d3 3e d4 0d 88 3e 82 52 00 3f 58 3d 3a 3f
       0.4137962 0.2657305 0.50125897 0.72749853
000090 33 c2 34 3e 2b 9a 02 3f ca d4 0c 3f e0 3b 5a 3f
       0.17652206 0.5101649 0.5501219 0.8524761
0000a0 38 5c e8 3e b2 df e7 bf ad de 01 c0 8f 65 c3 3e
       0.45382857 -1.8115141 -2.029216 0.3816342
0000b0 dc 38 c5 bf 46 42 f0 3e dd 7d 01 c0 23 a8 0d 3e
       -1.5407977 0.46925563 -2.023307 0.1383367
0000c0 9d 34 61 bf 67 49 0f 3f b5 be 17 c0 3d a3 ee 3e
       -0.87970906 0.5597138 -2.3710148 0.46608916
0000d0 a6 cf 28 3f f9 b1 12 c0 ef d7 30 c0 02 f1 9c bf
       0.65941846 -2.2921126 -2.7631795 -1.226105
0000e0 89 ff 72 3d 1f cd 42 c0 5f d6 86 be 6b 64 8f bf
       0.05932573 -3.0437696 -0.26335427 -1.120252
0000f0 cb 47 8f bf 00 a3 1e 3f 7e 0c 41 be f4 d4 28 bf
       -1.1193784 0.6196747 -0.18852422 -0.6594994
000100 b0 28 02 3f 6f 9a d0 bf fe 3e 80 bd 10 8c 47 bf
       0.50843334 -1.6297129 -0.06262015 -0.77948093
000110 65 08 76 3e f9 ba e8 bf 0d 01 85 3f e8 64 20 c0
       0.2402664 -1.818206 1.0390946 -2.5061588
000120 f0 a8 fc bf 87 94 84 3e df 89 9a 3f c5 18 52 3e
       -1.9739056 0.25894567 1.2073325 0.20517261
000130 f6 98 05 c0 9c 49 9a 3f 7b 9a aa be 72 14 1e 3f
       -2.087461 1.2053714 -0.33320984 0.6174995
000140 20 b5 08 3e 4f ae 9a 3e 04 b8 4a c0 22 bc a1 3e
       0.13350344 0.30211112 -3.1674814 0.31588846
000150 fc f7 40 3d 4f be 8a 3d cc ec 4e c0 5a e4 d6 bd
       0.047111496 0.0677458 -3.233203 -0.10492773
000160 e1 48 52 bf 15 d0 56 3e a0 8a d8 3e 6a 73 20 3f
       -0.82142454 0.20977814 0.42293262 0.6267611
000170 ac 44 49 bd df bb 50 c0 08 26 67 3d 74 2f b3 bf
       -0.049137756 -3.2614667 0.056432754 -1.3998857
000180 b2 9f 8e 3e 9f 9b 96 3d 92 81 03 3f 12 29 53 bf
       0.27856213 0.07353901 0.51369584 -0.82484543
000190 f7 cf 2c c0 1e 7a 86 be b8 c4 ec bf 79 2c 1b c0
       -2.7001932 -0.26265043 -1.8497534 -2.4245894
0001a0 03 10 4b bd 8d d7 4a c0 48 8f a3 bf 70 a4 1d c0
       -0.049575817 -3.1694062 -1.2778101 -2.4631615
0001b0 1c 9f ac bf 85 38 0d c0 f2 7f a2 bd 88 89 d5 bf
       -1.3486056 -2.2065747 -0.0793456 -1.6682596
0001c0 05 2d 0e c0 86 a0 9b bf 3e fb cd 3c d3 d2 e2 bf
       -2.2214978 -1.2158363 0.025144216 -1.7720588
0001d0 33 34 c9 be e2 77 32 3d 4a 85 ee bf 21 6d ae bf
       -0.39297637 0.04357136 -1.8634427 -1.3627053
0001e0 04 19 10 3f a1 b0 04 3f 94 76 69 bd 09 e6 05 3f
       0.5628817 0.51832014 -0.05699785 0.5230413
0001f0 93 99 03 3f 8b ee 05 bf 7f b8 b5 bd d5 5f fe be
       0.5140621 -0.5231711 -0.088730805 -0.4968249
000200 cc cb 9b 3d 89 9a 21 3f cd 49 13 bf 82 57 97 3e
       0.076072305 0.63126427 -0.57534486 0.2955895
000210 de 00 df bd e3 f2 8b bd 3f e0 8f 3d ed d3 55 3c
       -0.10888837 -0.06833436 0.070251934 0.013051015
000220 81 2a ca 3d 2f df 10 3d 6e c8 96 3f 75 de 01 3d
       0.09871388 0.035369094 1.1779916 0.031706292
000230 c9 24 25 bd 15 f9 f4 bf 6e c3 af be 01 ee 9d bc
       -0.040318284 -1.9138514 -0.3432879 -0.019278528
000240 80 57 ed bf 14 22 61 bb b9 55 00 bf 2f 3c 2c be
       -1.8542328 -0.0034352588 -0.501308 -0.16819833
000250 d5 69 e8 3e cf 22 4b be b3 19 98 bf e3 de d7 3d
       0.45393243 -0.19837497 -1.1882843 0.10540559
000260 28 2e 61 be 46 60 b7 3e 00 e8 83 bf 3d 33 f5 3d
       -0.21990263 0.35815638 -1.0305176 0.119726636
000270 96 47 25 3e 49 ea 8b bf 6d 17 d4 be 62 9f 0e 3f
       0.16140589 -1.0930873 -0.41424122 0.5571195
000280 54 cd 47 3e f4 9f 54 be e7 e5 9b 3e cf 76 c8 3e
       0.1951192 -0.20764142 0.3044884 0.39153144
000290 0e e8 c4 be e2 e6 87 bf 01 46 c4 3e 31 3f d8 3e
       -0.38458294 -1.0617335 0.3833466 0.4223571
0002a0 6b 1a 69 3e 03 06 9a be 7a d1 2a 3f 45 75 3f bf
       0.22763984 -0.30082712 0.66725886 -0.74788314
0002b0 b0 11 54 bf a5 43 de 3e 8f fb 03 3f 16 1e c3 3e
       -0.8283949 0.43410984 0.5155572 0.3810889
0002c0 a8 5f 2a 3f 88 0e 0c 3f 3e a6 19 3f 8f 97 25 3f
       0.6655221 0.5470967 0.6001929 0.64684385
0002d0 f4 c9 1b 3e 48 f7 a5 be 71 6b 8a 3d 11 2c 24 3d
       0.15213758 -0.32415223 0.06758774 0.040081087
0002e0 79 b5 8a bf 63 96 7e 3f c9 eb a4 3e b3 b6 8f 3f
       -1.0836631 0.9944822 0.3221114 1.122763
0002f0 7a 3a cd 3e 37 3f 1e 3f ea 39 70 be 5e cc e9 3e
       0.40083677 0.6181521 -0.23459592 0.45663732
000300 ab 89 45 3f 36 c7 6d 3e 47 cd 16 3f 3b 07 fa 3e
       0.7716319 0.23220524 0.5890698 0.4883364
000310 bd a9 07 3f 30 0c f9 3e 44 8e 6d bf 7f 20 1a 3f
       0.52993375 0.4864211 -0.92795205 0.60205835

sequential_6/dense_26/MatMul f4 [7, 10]
000000 63 95 63 c0 50 f1 50 bf 9d a8 4a bf c1 20 1b c0
       -3.5559928 -0.81618214 -0.79163533 -2.4238741
000010 56 cb ff bf 73 f8 13 c0 ae 44 c4 bf fa 50 d8 c0
       -1.9983928 -2.3120391 -1.5333459 -6.759885
000020 8a 16 92 c0 dd 54 de bf f7 fc ed be 72 b2 21 3e
       -4.5652514 -1.7369648 -0.4648206 0.15790728
000030 7b 75 ef 3e 47 19 86 3f fa f7 40 3e 48 fb be 3f
       0.46769318 1.0476464 0.18844596 1.4920435
000040 f4 55 b0 be 3a 73 17 c0 b4 1b e1 bf 73 21 57 3e
       -0.34440577 -2.3664079 -1.7586579 0.21008854
000050 84 52 04 3e d0 be 20 3f 71 59 6c be 52 6d 6b 3e
       0.12922102 0.62791157 -0.23080994 0.22990921
000060 94 90 53 be 99 03 cd bf a1 51 46 3f 01 15 94 be
       -0.20660621 -1.6016723 0.77468306 -0.28922275
000070 2a e4 ec 3d 14 c4 22 be 7b 16 3e be d5 f3 35 3f
       0.11566956 -0.1589511 -0.18563263 0.71075183
000080 4a c0 0b bf 02 ac a8 bd d2 ea 98 bf 1e bd de bf
       -0.54590285 -0.08235933 -1.1946661 -1.7401464
000090 f2 7b d9 bd e3 c8 1e 3e 53 23 82 3e 6b 32 44 3f
       -0.10619344 0.1550632 0.25417575 0.7663943
0000a0 0e c7 59 3f 3e 2e fd be 0d 81 a3 3f bc a6 f8 bf
       0.8506936 -0.49449342 1.2773758 -1.9425883
0000b0 62 6f 25 3f 8c 4a b2 bf e2 df 0a be 4e df 93 3f
       0.6462308 -1.3929 -0.13561967 1.1552522
0000c0 1d cd d8 3d dc 3c 24 3e 5a e9 5c c0 e7 41 38 bf
       0.10585997 0.16038841 -3.4517426 -0.7197556
0000d0 53 a1 c0 bf ad ff 97 bf 2e 19 66 3f b0 1f c8 3f
       -1.5049232 -1.1874901 0.8988217 1.563467
0000e0 de b0 48 3f 3d d6 07 3e 9c c9 33 bf d3 03 e1 bf
       0.7839488 0.13265319 -0.70229506 -1.7579292
0000f0 56 38 e4 3c 64 90 2e bf ec d4 25 c0 ef e3 5e 3e
       0.027858894 -0.6818907 -2.5911207 0.21766637
000100 f5 01 47 3f a6 f4 a9 3e b5 82 1f be 61 7e 3f bf
       0.7773736 0.33194464 -0.15577205 -0.74802214
000110 d6 87 0a 3f db 0c b0 be
       0.5411352 -0.34384808

sequential_6/lstm_12/Read_2/ReadVariableOp1 f4 [40]
000000 69 fd 59 3e 04 72 c7 3d c2 d5 9b 3d c1 15 76 3f
       0.21288075 0.09738544 0.076091304 0.96126944
000010 04 2d 97 bd 60 dc 3b 3f 9c 74 72 3d b9 86 b4 3e
       -0.07381633 0.7338314 0.05919324 0.35259035
000020 be b7 0a 3f 29 67 d3 bd 00 00 80 3f 00 00 80 3f
       0.5418662 -0.103224106 1.0 1.0
000030 00 00 80 3f 00 00 80 3f 00 00 80 3f 00 00 80 3f
       1.0 1.0 1.0 1.0
000040 00 00 80 3f 00 00 80 3f 00 00 80 3f 00 00 80 3f
       1.0 1.0 1.0 1.0
000050 77 4f a1 bc 43 5a 2a 3e 34 3e 44 3e a4 4b 55 3d
       -0.019691212 0.16635995 0.19164354 0.05207409
000060 07 c1 7c bd ad 11 d3 bc f2 42 f3 bd 65 bd 2a bc
       -0.061707523 -0.025765264 -0.11878003 -0.010421132
000070 91 cf 24 be ea cc 9e bd 4a fa 00 3e 79 f0 c5 3e
       -0.16094805 -0.07753928 0.12595478 0.3866003
000080 6b 1c 51 3c 3b 34 81 3e 5a d9 89 bc a8 4b 20 3f
       0.012763123 0.2523516 -0.016827274 0.6261544
000090 12 c4 c0 3d 87 05 78 3e cf 3e 3f 3e 81 bc 22 be
       0.094123974 0.24220859 0.18676303 -0.15892221

while/MatMul_11 f4 [40, 10]
000000 10 d8 d6 bd 46 e9 83 bd 67 77 6d 3b c4 20 09 3e
       -0.104904294 -0.06440978 0.00362345 0.13391405
000010 91 06 05 3e 72 14 61 be ed aa 20 bd 89 6c 3c 3c
       0.12990786 -0.21980456 -0.039225508 0.011500486
000020 ca 53 81 3e 7f 39 e1 bb b8 fc d9 bb 03 f7 2f bd
       0.25259238 -0.006873309 -0.006652441 -0.042960178
000030 d9 3a 2d 3e 87 0f b0 be dc 66 02 3d f2 8d 87 bd
       0.1691698 -0.34386846 0.031836376 -0.06618871
000040 bb 12 07 be 1e 95 3c 3e 2c a0 6a be 9c bb 84 be
       -0.13190739 0.18416259 -0.22912663 -0.25924385
000050 9e c2 48 bc db d1 b5 bd 0c 90 da bd e3 ae 46 3e
       -0.012253432 -0.088779174 -0.10672006 0.19402651
000060 e3 fe ef 3d 0a d9 e9 3d 32 37 64 3e ae a9 09 bd
       0.11718538 0.1141835 0.2228668 -0.033609085
000070 7f 8e 61 3e e1 4a bf bd 5e 9c c7 bd 5b 97 3e 3d
       0.22027014 -0.09340454 -0.097466215 0.046531063
000080 7f f3 21 be 0b 67 ee bd 1f 61 0a 3e f9 75 be bd
       -0.15815543 -0.11640748 0.13513611 -0.09299845
000090 d7 4f aa bc 82 66 64 be 8b 70 3c 3c 3c 39 0d 3d
       -0.020790024 -0.22304729 0.011501442 0.03447841
0000a0 e3 9e a3 bd e9 61 21 be 61 95 ee 3d ea fd 4b bc
       -0.079892896 -0.15760006 0.116495855 -0.012450675
0000b0 23 e4 72 bd f0 8c 27 3e 8a 71 dd bd 61 d1 8a 3e
       -0.0592996 0.16362357 -0.108126715 0.27112868
0000c0 b1 17 df bc 2a aa 07 be f9 09 ac 3d 44 07 07 be
       -0.027232977 -0.13248506 0.0840034 -0.13186365
0000d0 db 4b c8 bb a2 63 60 bd 65 5e 17 be 89 5e 4c 3e
       -0.0061125583 -0.054782517 -0.14782102 0.19957937
0000e0 3e a0 59 3e ee 9f a7 bd 96 e6 8a bd 99 ca 68 3c
       0.21252534 -0.08184801 -0.06782262 0.014208459
0000f0 ee c3 cf 3e f6 4b 89 3e 99 1b 2d bd 98 ed 2b be
       0.4057917 0.26815766 -0.042262647 -0.16789854
000100 8f 29 92 3e 9e a5 5e 3d 06 37 2d 3d 85 d9 b5 3e
       0.28547332 0.054357164 0.042288803 0.35517517
000110 cf d0 39 3e ea 63 c6 bd 36 a8 6c 3e b4 eb 73 bb
       0.1814606 -0.09687026 0.23111042 -0.0037219347
000120 b6 8c f4 3d 17 bd 84 be 6e 66 22 bd b3 b7 12 3e
       0.11940901 -0.25925514 -0.039648466 0.14327888
000130 7d 11 64 be 1c f1 d6 bd 6c 3d 3f 3e 6c 56 26 3d
       -0.22272296 -0.10495207 0.18675774 0.040609762
000140 63 1b 85 be c3 58 93 3d 21 2b d2 3d 67 f0 83 3e
       -0.25997457 0.07194664 0.102621324 0.2576935
000150 8c 89 58 3e a4 20 42 3e 78 0f 76 3b 69 4a 2c 3d
       0.2114622 0.18957764 0.0037545841 0.04206315
000160 70 a8 32 be ae 61 80 3c 93 b4 39 3e 8a 51 9b 3c
       -0.17447066 0.015671577 0.1813529 0.01895978
000170 0f c7 69 be ea 0a c3 3d 9a 63 03 be 5a c5 80 3c
       -0.22829841 0.09523566 -0.12830964 0.015719105
000180 bd 39 d2 3d 3e 42 83 3c b0 8e 2b be dc 2a c4 3e
       0.10264919 0.016022798 -0.1675365 0.3831395
000190 db 0c 30 3e a8 a5 f7 be 6b fb 74 3e ee 4f b1 3d
       0.17192404 -0.48368573 0.23924033 0.086578235
0001a0 27 37 01 be d9 8d af be 40 5f 48 b9 97 89 08 3e
       -0.12618695 -0.3428791 -0.0001910897 0.13333736
0001b0 bd 6c 93 3d 02 cb 4c 3e ff dd 89 be 06 f0 37 3d
       0.071984746 0.19999316 -0.26927182 0.04490664
0001c0 aa 2d 1f 3e 20 a6 e2 ba c9 ca 96 be 13 e0 8b be
       0.15544763 -0.0017291941 -0.29451588 -0.27319393
0001d0 9e 60 44 be 2f 38 c1 3d 3d 06 21 be 5a d9 21 bc
       -0.19177482 0.09434544 -0.15725036 -0.009878481
0001e0 ed b7 55 be 26 d9 20 be 31 72 2a bc a0 5d 5a bd
       -0.20870943 -0.15707836 -0.010403202 -0.053311944
0001f0 bf d2 62 bd 2b 87 b5 3e 3f 63 00 3e 4b 03 db 3e
       -0.055376764 0.35454687 0.1253786 0.4277595
000200 5a a6 f6 3c 75 07 20 3e 4d 41 f8 3d b7 b2 1d be
       0.03010862 0.15627845 0.1212183 -0.15400206
000210 29 ff d2 bd 72 fb 07 bd cc a8 c9 be 16 b1 9a 3d
       -0.10302574 -0.03319878 -0.39386594 0.07553308
000220 a2 22 47 3e 60 3d 08 be b0 52 e8 bd 37 56 46 be
       0.19446805 -0.13304663 -0.113438964 -0.19368826
000230 25 ca 87 bc 85 a2 b1 3d f4 df 24 3d d7 07 74 be
       -0.016575882 0.08673576 0.04025264 -0.23831116
000240 03 50 f1 3c 63 0e c6 3d de 63 9d 3d 60 bf eb bd
       0.029457098 0.09670713 0.07685064 -0.11511111
000250 24 15 35 be 78 e3 cf 3e 32 ef 65 bb b8 07 ba bd
       -0.17683846 0.40603232 -0.0035085198 -0.090835035
000260 4b 0f 44 3e 4f 30 1d bd 28 42 e5 3d 7d 33 85 3e
       0.19146459 -0.03837615 0.11194259 0.26015845
000270 0c b7 c7 3d e3 ca 57 be ee 24 86 be 83 cb 71 be
       0.0975171 -0.21073489 -0.2620005 -0.2361279
000280 ea e3 ab 3d 34 3a af be 2d 0f bf be 6f 25 99 3d
       0.083930805 -0.34224093 -0.37316266 0.07477843
000290 99 46 aa 3d 2c 82 7e bc 15 de e4 bd 09 6f fb 3c
       0.08314247 -0.015533965 -0.11175171 0.030692594
0002a0 e3 0d fa 3c ca 0e 6c bd aa 05 db 3c 84 95 85 3e
       0.0305242 -0.05763129 0.0267361 0.26090634
0002b0 97 dc 15 bd 0a 4c 55 3d ac 13 10 be 55 f3 e6 3d
       -0.036587324 0.05207447 -0.14070004 0.11276881
0002c0 11 64 1d be f5 d2 9f bd c1 90 ae 3d d2 c9 aa bd
       -0.15370204 -0.07803909 0.08523703 -0.083392754
0002d0 6c 61 1b be 3a ef a5 3b 34 2e e1 bc aa 15 fb 3d
       -0.15173882 0.0050639184 -0.027487852 0.122599915
0002e0 b0 c3 29 3e e4 12 fd 3d 78 3e b8 3d 7c 31 e1 bc
       0.16578555 0.12357119 0.0899629 -0.027489416
0002f0 30 9b 16 be 2b eb ab 3d a1 fd 28 3e 9c 8f 17 3b
       -0.14707637 0.08394464 0.16503002 0.002312637
000300 14 9e 8c be 89 bf 1c bc c3 5e b9 3d ee 43 12 3e
       -0.27464354 -0.00956715 0.090512775 0.14283726
000310 6a 4a 38 be df f0 06 3e da 91 6b be c8 60 be bb
       -0.17997137 0.13177823 -0.23004857 -0.005809877
000320 4e 04 a6 bd 3b a2 55 bc 6f b0 be bd bb de 79 3e
       -0.0810629 -0.013039167 -0.09310996 0.24401371
000330 04 f6 31 3c 55 96 1c bc 20 32 51 be 2d 84 af be
       0.010861877 -0.009557326 -0.20429277 -0.3428053
000340 12 08 7d bc 87 56 9c bd ca 3f 3b be e0 7e ba 3d
       -0.015443819 -0.07633691 -0.18286052 0.09106231
000350 c7 46 c4 bd 6a 53 59 be 49 ee 37 3d 0c d8 af 3d
       -0.09583812 -0.21223226 0.04490498 0.085861295
000360 7f 23 8b bd 7b 5d c8 bc 79 db 9f bd 4e 61 31 bd
       -0.0679388 -0.024458637 -0.07805533 -0.043305688
000370 ec 5c 4c be 6f d9 86 3e 46 6d 36 be 20 03 1b bc
       -0.19957322 0.26337764 -0.17815122 -0.009461194
000380 43 a7 45 bd 3d 46 73 be 7a 71 c2 3d 30 6c 92 3e
       -0.048255216 -0.23757263 0.094943 0.28598166
000390 16 98 1e be 17 57 1c be e9 d2 07 3d 60 39 16 bd
       -0.15487704 -0.15267597 0.033160124 -0.03667581
0003a0 52 08 29 3e ee 64 34 be b1 4d b5 3d de 34 35 3d
       0.1650708 -0.17616627 0.08852709 0.04423987
0003b0 14 2a e2 be e9 53 12 be 1b 94 e9 bd 3a d1 db 3d
       -0.44172728 -0.14289822 -0.11405202 0.10733266
0003c0 e5 cc df bd 30 c4 f8 bd fb e2 3e 3d b6 b8 9a be
       -0.109277524 -0.12146795 0.046603184 -0.30219048
0003d0 14 a4 00 be 16 e3 7d bd 91 1c 23 3e 98 92 42 bd
       -0.12562591 -0.061984144 0.15928866 -0.047503084
0003e0 d1 76 8c 3e 51 5d 73 be 3a 2f fe 3c a6 88 1b 3e
       0.274344 -0.23766066 0.031028379 0.15188846
0003f0 0b cf 3d 3e 95 fe 36 3e 9b 7e 26 be 34 2b 54 3e
       0.18536012 0.17870553 -0.16259234 0.20719606

while/MatMul f4 [40, 42]
000000 cd a6 82 be 86 26 4a 3e c4 78 58 3e 4a ad c3 3c
       -0.25517884 0.19741258 0.21139818 0.023886342
000010 3d 46 8b bd 7a 39 9a bd 2e 25 f5 3e 59 58 38 be
       -0.06800506 -0.07530494 0.47879928 -0.18002452
000020 64 86 67 3d 0a 53 f8 bd 8c 12 ce 3e c1 7c 9a 3d
       0.05652465 -0.121252134 0.40248525 0.07543326
000030 69 1e 2d bc e9 0b 21 3e 7f d8 17 3e c2 b9 89 3e
       -0.010566332 0.157272 0.1482868 0.26899534
000040 c2 3d 11 bf a6 06 50 3e 18 74 9a bc d5 ef fb bd
       -0.5673486 0.20315036 -0.018854186 -0.12301604
000050 6d eb 75 be 79 82 ee 3a 3f 53 50 bf c6 ff e5 bd
       -0.24015589 0.0018196843 -0.81377023 -0.112304255
000060 69 1f 80 bf 26 7b b8 3b 78 ab aa bf d4 19 46 3e
       -1.0009586 0.005629915 -1.3333578 0.1934579
000070 53 8c c4 bf a7 8b 04 bc 00 91 e2 bf 82 01 14 bd
       -1.5355324 -0.008089936 -1.77005 -0.03613425
000080 69 71 95 bf ac d9 1d be 4a d2 25 c0 65 e4 10 bd
       -1.1675235 -0.15415066 -2.59096 -0.035374064
000090 de 93 33 c0 b1 66 b6 3c aa d2 40 c0 28 ec 9f be
       -2.8059 0.022265764 -3.012858 -0.3123486
0000a0 13 fd 32 c0 0f d9 d2 be 86 98 43 3e ab 73 6a be
       -2.7966964 -0.41181228 0.19101152 -0.22895686
0000b0 28 86 c4 3e bb 00 53 bf fd 31 98 3e cc 27 96 bf
       0.38383603 -0.8242299 0.29725638 -1.1730895
0000c0 18 48 e0 bb 15 f5 6c bf 7b bc d1 3d c5 1c 2f bf
       -0.0068445317 -0.92561466 0.10241028 -0.68403274
0000d0 9d bd 8a 3e b2 88 9f be e8 20 ae 3e 8a 3a ab be
       0.27097788 -0.31158978 0.3400948 -0.334431
0000e0 78 d7 32 be f8 46 19 bf 45 25 33 3d 37 93 95 be
       -0.17465007 -0.59873915 0.043736715 -0.2921388
0000f0 76 6d 9d 3d 90 06 75 be fc ca 97 3e 6f e4 68 bd
       0.07686894 -0.23928285 0.29647052 -0.056858476
000100 1e 14 a6 3e 50 6b 9b bd de 68 41 3e d1 0e c1 be
       0.32437223 -0.075888276 0.1888766 -0.37706617
000110 6d 96 5f be 36 fe a3 be 3a 8e 78 3d fd f2 ff be
       -0.21834727 -0.32029885 0.060682513 -0.49990073
000120 60 6b 1f be 58 8d ed be 62 80 0b be 1d 6c b3 be
       -0.15568304 -0.463969 -0.13623193 -0.3504342
000130 34 de cf be ca c9 a9 be 84 ae 9b be 95 a5 03 bf
       -0.40599215 -0.33161765 -0.30406582 -0.51424533
000140 30 c7 42 be d4 b2 af be eb be 2d bd 68 88 11 bf
       -0.19021297 -0.34316123 -0.0424184 -0.56848764
000150 33 66 74 be 10 8a 50 bd 7a 3e 43 3e b3 1d 3f 3f
       -0.23867111 -0.050912917 0.19066802 0.7465469
000160 6b f1 07 be d7 29 80 3c cd 22 7e be 18 29 7d be
       -0.13275687 0.01564495 -0.24817963 -0.24722707
000170 57 88 e6 bd b5 4b 30 be 6f 8f d3 3e 4c 3c 08 bf
       -0.112564735 -0.1721638 0.4132037 -0.53217006
000180 ec 3f 76 3d 1f e4 9c be cc 8a 05 3e bf 2e 04 be
       0.060119554 -0.30642793 0.13041228 -0.12908457
000190 ae 7b 89 3e a7 ed f0 3e 5c 7c cc bd be 65 0d bf
       0.26852173 0.47056314 -0.09984657 -0.5523337
0001a0 20 dc d9 3d 72 f5 72 bd ed 6a 41 bd c2 d2 1f 3d
       0.10637689 -0.059316106 -0.047221113 0.039019354
0001b0 b8 fa 50 3e f2 27 2b be ca 6d 50 be 4f 8d fa be
       0.20408142 -0.16714457 -0.20354381 -0.48935935
0001c0 60 4a 7f be f1 b5 d1 be 38 79 2d 3e 62 36 68 be
       -0.24930716 -0.40959123 0.16940773 -0.22676995
0001d0 38 b3 f9 3d 97 f0 68 3e 8e 42 d5 be 59 89 d6 be
       0.121923864 0.22748028 -0.4165234 -0.41901663
0001e0 5d 03 62 bd f2 70 e9 be 45 07 36 3e 19 1b f8 be
       -0.05517899 -0.45593983 0.1777621 -0.48458174
0001f0 c6 ea 2d 3f b1 40 eb bd 48 bf a3 3d f0 e7 21 3e
       0.6793636 -0.11486948 0.079954684 0.15811133
000200 22 65 2b 3e 0d 3d e3 be 1e 49 dd 3d 11 18 1f bf
       0.16737798 -0.44382516 0.108049616 -0.621461
000210 44 07 25 be 0d a2 92 bf a7 9f e2 3c 77 74 ca bf
       -0.16116053 -1.1455704 0.027664019 -1.5816792
000220 41 a1 cb bd 17 66 84 3f 31 ca b2 be f4 49 91 be
       -0.09942866 1.0343655 -0.34919885 -0.28376734
000230 60 00 2a bf 4c 55 8c bf c1 7e d4 be 80 0d ce bf
       -0.6640682 -1.096353 -0.41502956 -1.609787
000240 85 54 eb be 79 ca a5 3f 32 81 41 bf 99 88 2d bf
       -0.4596292 1.2952415 -0.7558776 -0.67786556
000250 ad 85 15 bf 68 1a aa bf 9c 31 fe be 44 8e cc bf
       -0.584071 -1.3289309 -0.49647224 -1.5980916
000260 33 73 4c 3e 68 fc 5c 3f 69 a1 60 be 6a 37 e8 be
       0.1996582 0.8632264 -0.21936573 -0.45354778
000270 06 4c fd 3c 0c 2d 8c bf 97 69 80 3e 81 2a 8f bf
       0.03092004 -1.0951247 0.2508056 -1.1184846
000280 22 a1 a9 bd 9b 07 90 3f 23 4e 58 3e a2 75 3d 3e
       -0.08282687 1.1252321 0.21123557 0.18501905
000290 f8 fd 0a 3e 39 22 d4 be fb f1 58 3e 1c 12 7f bf
       0.13573444 -0.4143236 0.21186058 -0.9963701
0002a0 74 3c ee bd 7c 7e ee bd 83 5c 2c 3e c3 bd 99 bf
       -0.11632624 -0.11645219 0.16832165 -1.2011036
0002b0 85 2d cf 3e a4 21 cf be 3a 69 33 be b3 0f 06 3e
       0.40464416 -0.40455353 -0.1752061 0.13091926
0002c0 6f a7 4d be 69 ec f8 3e dd 07 fe 3e 20 7a c5 be
       -0.20083402 0.48617867 0.49615374 -0.38569736
0002d0 18 f3 09 3e 20 1f 79 be 00 42 c4 bd ec 31 07 3d
       0.13471639 -0.2432828 -0.09582901 0.033006594
0002e0 eb 4e 30 bd 9c 16 7f bd 5d a0 25 3f c8 33 a7 be
       -0.043044012 -0.06227742 0.6469782 -0.32656693
0002f0 d0 f5 46 3f 96 9d 54 be 20 7f ac 3d 46 c5 00 be
       0.7771883 -0.2076324 0.08422685 -0.12575254
000300 93 fb 91 3c 04 42 af bd 41 56 da 3e f2 5a b4 be
       0.017820155 -0.08557513 0.42643932 -0.35225636
000310 4c 61 97 3e 35 28 1b be 1b 22 0d 3f 57 b7 4e bc
       0.2956642 -0.15152057 0.55130166 -0.012616954
000320 d1 84 b4 3e 0e c5 8e be 63 11 a8 3e 31 61 5c be
       0.3525758 -0.27884716 0.32825765 -0.2152145
000330 0d a9 57 3e 57 82 9a be f7 11 8d be 19 64 f3 3c
       0.21060582 -0.30177566 -0.2755277 0.029710816
000340 c0 3c fa be 94 2f 91 3e 74 42 29 bd 74 54 af 3d
       -0.48874474 0.28356612 -0.04132314 0.0856103
000350 d6 85 80 be 5c 43 1b bf c0 1a a2 bd 12 e8 02 bf
       -0.2510211 -0.6064966 -0.079152584 -0.5113536
000360 d1 79 5c be 77 b4 60 bf 4a 70 92 3e ec 03 a5 bf
       -0.21530844 -0.8777537 0.28601295 -1.2891822
000370 3a b9 3a bf ed 42 6c 3f 6b 23 12 bf 22 a5 b3 be
       -0.72938883 0.9228962 -0.57085294 -0.35086924
000380 43 65 22 bf 20 0d 9c bf 9e 26 13 bf ef ac be bf
       -0.63435763 -1.2191505 -0.574808 -1.4896525
000390 37 2d 68 bf ae a7 b4 3f a5 be 81 bf 94 46 3e bf
       -0.9069399 1.4113672 -1.0136305 -0.74326444
0003a0 40 ae f9 be 2a 30 6a bf 71 31 d9 be af 56 aa bf
       -0.48765755 -0.9147974 -0.42420533 -1.3307704
0003b0 f1 8f b8 bd 05 67 2e 3f bc 5c 9d be 5a e8 2e be
       -0.0901183 0.68125945 -0.30734813 -0.17080823
0003c0 e9 57 7d 3e e5 fc 45 bf d1 57 04 3e 75 0c 79 bf
       0.24740566 -0.7733901 0.12924124 -0.9728463
0003d0 9e bb e1 3e ea 85 24 3f 94 84 3c 3e fa 28 77 be
       0.44088453 0.64266837 0.1840995 -0.24136725
0003e0 25 7f 07 3f ab db 60 bf 2b c4 83 3e 59 d3 6d bf
       0.5292838 -0.87835187 0.25735602 -0.92900616
0003f0 02 0a 28 3e 9c 91 4e 3e 7f c2 60 be a5 d4 bf 3d
       0.16410068 0.20172733 -0.21949194 0.093667306

sequential_6/lstm_13/Read_2/ReadVariableOp1 f4 [40]
000000 a0 aa f0 3e 20 6c 15 3f bf 69 7c 3f e2 13 78 3f
       0.47005177 0.5836811 0.98598856 0.9690534
000010 02 6d 76 3f 47 91 59 3f 97 11 24 3e cd 5c 8a 3e
       0.9626008 0.849873 0.16022335 0.27023926
000020 c4 a0 33 3f ce 43 68 3c 00 00 80 3f 00 00 80 3f
       0.70167184 0.014176322 1.0 1.0
000030 00 00 80 3f 00 00 80 3f 00 00 80 3f 00 00 80 3f
       1.0 1.0 1.0 1.0
000040 00 00 80 3f 00 00 80 3f 00 00 80 3f 00 00 80 3f
       1.0 1.0 1.0 1.0
000050 20 a7 11 3e 47 09 ff bd c5 61 14 be ab 43 35 be
       0.1422391 -0.124529414 -0.14490421 -0.17701595
000060 8f 9f 97 3c 82 43 d4 3c d5 bb 00 3e ee eb 67 3e
       0.0185087 0.025911096 0.12571652 0.22648594
000070 16 d5 d5 3d 69 98 91 3d 4e b3 1e 3f f5 42 c3 3e
       0.104410335 0.07109148 0.6199235 0.38137022
000080 24 9d 7d 3f ec 47 a4 3f 37 d5 61 3f 17 19 40 3f
       0.990679 1.2834449 0.88215965 0.75038284
000090 fd ac cb 3d 02 34 63 3e 55 d7 85 3f 44 0b 03 3e
       0.09945104 0.22187808 1.0456339 0.12797266

while/MatMul_14 f4 [40, 10]
000000 28 79 82 be 08 e5 a0 3c 5e b4 e4 bd 1b 53 df 3d
       -0.2548306 0.01964046 -0.11167215 0.10904523
000010 32 8e 5f be f5 89 df 3d 26 bb 50 3e b0 f4 b0 3d
       -0.21831587 0.10914985 0.20383891 0.086404204
000020 5d 5b 49 3c 73 de d0 bb 31 b7 51 3e 76 d1 22 be
       0.012289849 -0.0063741743 0.20480038 -0.15900216
000030 3a c2 b2 3d 5a 22 87 3d 3c 38 df 3c cc 06 ce bd
       0.08728452 0.06598349 0.027248494 -0.1005989
000040 00 30 c0 3b ff 41 b4 3e b1 2b 90 bc 0b eb 3b be
       0.005865097 0.352066 -0.017598959 -0.1835138
000050 f3 34 14 be 76 d9 db 3d 13 f7 ab 3c 73 59 04 3e
       -0.14473324 0.10734837 0.020991838 0.12924747
000060 66 79 b4 bd 23 6d d5 bd ce 33 2b 3d 86 c8 e5 bc
       -0.088122174 -0.10421207 0.04179745 -0.028049719
000070 f9 34 7e 3e e8 2e 8c bb 0d 0f 8e be 36 b4 33 be
       0.24824895 -0.0042780526 -0.27745858 -0.17549214
000080 29 d6 df 3d 8b a4 d6 bc d5 63 ab 3e d0 10 a6 3e
       0.1092952 -0.026201507 0.33474603 0.32434702
000090 fe 41 42 be b4 c5 73 3d 13 02 92 3d d5 62 af bc
       -0.18970487 0.059514716 0.07129302 -0.021409431
0000a0 bb de 8b be 5f 60 c0 bd 68 53 d1 bd 4d 5b bc bd
       -0.27318367 -0.09393381 -0.102209866 -0.09197102
0000b0 6e cf 32 be 28 b8 2f 3c 6e 77 95 3d 6c aa 4a 3e
       -0.1746194 0.010725059 0.0729817 0.19791573
0000c0 28 23 45 3e b4 5e 2e 3d 62 04 0f bf ea f1 cd bd
       0.19251692 0.042570785 -0.5586606 -0.10055907
0000d0 cd 7f 26 3e 0f 87 fd 3c 87 9f 25 bd 0b 8e 40 3e
       0.1625969 0.03094819 -0.04043534 0.18804185
0000e0 50 58 18 be 30 fe 64 bb 19 b6 b1 bd b7 cb cf 3d
       -0.14877439 -0.0034941547 -0.086773105 0.101462774
0000f0 21 60 ce 3d 3c 0f a7 3d b2 8c 11 3e 3e b7 95 3d
       0.10076929 0.081572026 0.14213827 0.07310341
000100 2b 7b 90 be 48 19 98 3e 33 79 0d be 54 b2 43 3d
       -0.2821897 0.29706788 -0.13815765 0.04777749
000110 b5 60 23 bd 90 64 dc 3e d4 3f 40 3d fd 72 e5 bc
       -0.03988715 0.43045473 0.04693587 -0.028008932
000120 bf 05 8b 3c 4b 1f 94 bd fa 3e 94 3c aa 73 24 be
       0.016970513 -0.07232531 0.018096436 -0.16059747
000130 46 92 4e bd 7c f2 18 ba 7a 01 70 3d 3a 44 38 bc
       -0.050432466 -0.0005834473 0.05859516 -0.011246735
000140 75 92 c7 3c 50 31 36 3e 53 8f 1a be a0 83 80 be
       0.024361828 0.17792249 -0.15093736 -0.25100422
000150 d9 fe 0d be 52 73 d5 3d 9c 3f 0f be d8 72 8d 3d
       -0.13866748 0.10422386 -0.13989109 0.0690667
000160 cd 01 96 be 68 ab e2 bd 8e e4 1d be c8 16 ef 3d
       -0.2929825 -0.110678494 -0.15419218 0.11674267
000170 76 a6 d4 3c c7 da db bd 84 f0 36 3e f6 92 28 3e
       0.025958281 -0.10735088 0.17865187 0.16462311
000180 46 46 8e 3e 48 4b ba 3b 3b c5 88 3e 8d 47 49 be
       0.2778799 0.0056852438 0.26712975 -0.196562
000190 78 e7 73 3d 6e d1 10 bd f1 03 a8 3d 8f 17 00 3d
       0.059546918 -0.035355978 0.08203877 0.031272467
0001a0 46 83 12 3d 46 7b 68 bd fe 86 43 be 0e 87 a8 bc
       0.035769723 -0.056758188 -0.19094464 -0.020572212
0001b0 62 a1 f2 3c 52 51 ff bd 9f 67 a1 bd 5f d7 20 be
       0.029617969 -0.124666825 -0.07881092 -0.15707158
0001c0 2a 48 8d 3e f1 27 ee bd 80 0a de 3c 82 52 9a bd
       0.2759412 -0.11628712 0.027104616 -0.07535268
0001d0 0c 18 02 3c a8 b3 9d 3d cf 99 91 3e fa 15 2f bc
       0.0079403035 0.07700282 0.2843766 -0.010686392
0001e0 eb 6e 0c 3d 60 ab 07 be 70 2d 64 3e 10 0a 20 be
       0.034285467 -0.13248968 0.22282958 -0.15628839
0001f0 49 8e 51 be 50 84 05 3e ea f4 b5 bd 16 c5 43 be
       -0.20464434 0.13038754 -0.08884604 -0.19118151
000200 4c 90 eb 3b 66 ce 09 be 31 bd 15 3d 43 79 4e bd
       0.0071888324 -0.13457641 0.03655738 -0.050408613
000210 80 30 b8 3c e8 e5 f1 bd 41 34 c0 3d 74 d8 0d be
       0.022484064 -0.11811429 0.09384967 -0.13852102
000220 0b 9a 93 be 62 9b 99 bd 6f a1 13 3e 61 37 40 3e
       -0.28828463 -0.0750034 0.14417051 0.18771125
000230 ef 1d 22 be 13 91 b9 be 8f 5a 53 3d 36 1d 50 3e
       -0.15831731 -0.36243495 0.051600035 0.20323643
000240 2b 6b 1f be f0 08 4a 3c dd ba 24 3e 41 8e 72 bd
       -0.15568225 0.012331232 0.16086908 -0.059217695
000250 63 14 65 be c9 42 79 3d d7 12 16 be 2c ac 95 bd
       -0.22371058 0.060854707 -0.14655624 -0.0730823
000260 d0 3f 2b be da 1e 65 3e be c6 6e be b2 2e 4a be
       -0.16723561 0.2237505 -0.23318002 -0.19744375
000270 ee c2 da bd 4b 08 db bd e1 7e d8 3d e8 30 e9 bd
       -0.10681711 -0.10694941 0.10571075 -0.11386281
000280 91 5f 13 be 73 b9 9b bd 76 5a a0 bd 33 e0 35 3e
       -0.14391924 -0.07603731 -0.07829754 0.17761306
000290 ac c6 1d 3d 8d a4 0a be 2b 60 0d 3d b6 8c 97 bd
       0.038519546 -0.13539334 0.03451554 -0.07399885
0002a0 21 64 a2 be 75 30 43 bd a4 b5 11 3c 94 ad 73 3e
       -0.31717017 -0.047653634 0.008893404 0.23796684
0002b0 22 4a 5c be a3 c7 e4 3c 70 41 f8 bd 53 ce 92 3e
       -0.21512654 0.027927225 -0.12121856 0.28673038
0002c0 bb 51 40 3e 76 6b 67 be c2 84 28 3d 06 da ec bc
       0.18781178 -0.22599587 0.041142233 -0.028912555
0002d0 46 c5 65 bc 8f 5c 7b be 7c df 45 bd 82 65 84 be
       -0.014024084 -0.24547027 -0.048308834 -0.25858694
0002e0 79 90 6c 3e e2 63 87 3d d5 9a 3f 3e 5e ee 28 3e
       0.23101987 0.06610848 0.18711407 0.1649718
0002f0 39 be 07 be 4e d7 90 bd 23 dc 10 3e b8 79 e9 bc
       -0.13256158 -0.07072316 0.14146475 -0.028500423
000300 65 9e a8 3e a3 73 26 3e 5e 34 10 be 8b 0c 8a bd
       0.32933345 0.1625505 -0.14082476 -0.06740674
000310 81 ec 9b bc 62 b3 26 3e b4 24 c1 bd dc 87 0b 3e
       -0.019033672 0.16279367 -0.09430829 0.13626045
000320 54 e4 fb 3d c4 a1 6b be 24 b3 8b 3c 22 6b b7 bc
       0.122994095 -0.23010927 0.017053194 -0.022389952
000330 85 d6 a6 be 4e e0 fe 3d f2 31 15 be 04 3c 2f 3c
       -0.3258554 0.124451265 -0.14569834 0.010695461
000340 d2 8e d9 3d ca f7 52 be 84 8b 97 bc e0 57 f0 b8
       0.10622944 -0.20602337 -0.018499143 -0.0001146046
000350 5d 38 2f be 7e 20 b5 bc 93 8b d3 3d c5 b5 8a be
       -0.17111345 -0.02211022 0.10329356 -0.27091804
000360 98 94 bf bd bd 50 55 be 94 aa 28 3e cf 87 7d 3e
       -0.09354514 -0.2083158 0.1647132 0.24758838
000370 be 58 55 bd 4d 3a cf bd eb 31 df 3d d6 b6 1a 3e
       -0.052086584 -0.10118542 0.10898193 0.15108809
000380 67 98 6e 3e c2 f4 c9 bd bb 6b 1b be 40 cd aa bd
       0.23300324 -0.09861137 -0.15177815 -0.083399296
000390 b7 e7 82 be 14 b0 b0 3d 18 8a f9 bd c0 4f 50 3e
       -0.2556741 0.08627334 -0.121845424 0.20342922
0003a0 b8 9b b1 3d 80 ec 7b 3e 49 2e 6e 3e da b6 41 3e
       0.08672279 0.24601936 0.23259844 0.18917409
0003b0 3a 88 12 be 08 04 f0 bc d6 15 a7 bd 0f 6d dc bd
       -0.14309779 -0.029298797 -0.08158462 -0.10762989
0003c0 91 a0 8b bc 1c ea 95 3d 9c 06 b2 bc 7c f0 54 bc
       -0.017044337 0.073200434 -0.021731667 -0.012996789
0003d0 f4 00 be 3d 72 c7 37 bd c4 20 85 be dc c4 17 be
       0.092775255 -0.04486794 -0.2600156 -0.1482119
0003e0 a9 d4 0a 3e 15 bb 56 be 55 fa b4 3c cf 6d be bd
       0.13557686 -0.20969804 0.022092024 -0.09298288
0003f0 b5 39 b8 bd fd 70 bd 3d f4 23 f4 bd 19 c4 ca bd
       -0.08995382 0.092500664 -0.1192092 -0.09900684

while/MatMul2 f4 [40, 10]
000000 d9 47 8f 3f ce e5 66 3f ec 12 8d 3f fe 08 8b 3f
       1.1193801 0.90194404 1.10214 1.0862119
000010 10 c6 19 bf ac f1 ea 3d a8 0d b3 3f 8a 3d 34 bf
       -0.60067844 0.114718765 1.3988543 -0.704064
000020 59 93 a3 3e 8d e0 f3 bd ad cf 44 40 02 86 d7 3f
       0.31948355 -0.11908064 3.0751755 1.6837771
000030 c8 80 63 3f b4 5b d9 3f 6f 58 4e be 6f 09 67 bf
       0.8886838 1.698111 -0.20150922 -0.9024877
000040 ba 1d 1e 3f 70 a3 4e bf 24 1e 49 bf f1 56 f5 bd
       0.6176411 -0.80718136 -0.78561616 -0.119794734
000050 2e a3 aa be 5f f7 11 bf 30 86 19 be 86 40 a2 ba
       -0.3332762 -0.57018083 -0.14992595 -0.0012378849
000060 6e 01 b4 3d db 59 47 3f 6b c2 28 bf 2f 62 d0 3f
       0.08789335 0.77871484 -0.6592166 1.6279963
000070 df 79 99 3d f0 33 0f 3f c3 56 34 3f 8d 18 25 3f
       0.07493948 0.55938625 0.7044489 0.64490587
000080 79 c5 81 3f 0b 90 b3 bd 44 25 16 3f 54 a7 9a 3f
       1.0138389 -0.087677084 0.5865061 1.2082314
000090 a4 c1 f2 3f f3 1a 00 bf e0 c7 37 c0 24 f4 83 3f
       1.8965344 -0.5004112 -2.8715744 1.0308881
0000a0 78 fe 0b 3f a7 52 42 3f 61 76 55 3f 96 82 26 be
       0.54685163 0.7590737 0.83383757 -0.16260752
0000b0 e6 8c 81 3f 35 2a b6 be d3 85 88 3e 50 45 15 3f
       1.0121124 -0.35579076 0.266646 0.5830889
0000c0 4f 8d ac bf f3 54 7a 3f 4c 4b 87 3e 27 62 bc be
       -1.3480624 0.9778587 0.26424634 -0.36793634
0000d0 6a 6a 2b 3f 99 af ad bf 32 0b 3d 3f 6b 45 0e be
       0.6695925 -1.3569213 0.7384521 -0.13893668
0000e0 64 a9 2f bf 8d 1c 6e 3f 71 7d 9c bf ee 2b 4a 3f
       -0.68617845 0.93012315 -1.2225782 0.7897328
0000f0 15 5c 32 40 64 d4 a4 3f 89 c6 bd 3f ed 99 13 3f
       2.7868702 1.2877316 1.4826213 0.5765675
000100 a0 77 75 3d c3 a5 0f bf a1 66 3b 3f a4 00 44 bf
       0.059928536 -0.5611231 0.73203474 -0.7656348
000110 66 d4 63 bf f9 f1 b2 3d 6d 6d 0d bf cc bc fe bf
       -0.8899597 0.08737559 -0.55245095 -1.9901366
000120 7f 2f a8 3c 87 17 35 3f 93 d7 50 3e 53 8e 08 40
       0.02053046 0.70739025 0.20394735 2.1336868
000130 fb 90 95 3f 79 61 c3 3e 5e a6 36 be 9f 3a cd be
       1.168487 0.38160303 -0.17836902 -0.40083787
000140 5b 49 0f 40 ca dc 48 3f 22 b6 f9 3e b6 f5 c8 3e
       2.2388523 0.784619 0.4877177 0.39249963
000150 6e 11 97 be 94 f9 36 be a7 d5 bd 3f 1f da bb bf
       -0.29505485 -0.17868644 1.4830827 -1.467594
000160 30 eb 5c bf b0 a0 ad be ef 0c c2 3f 0a 3d c6 3f
       -0.8629637 -0.33911657 1.5160197 1.5487378
000170 46 d4 2b 3f 1c 23 c2 3f 5f f3 be bf dc e8 41 3e
       0.6712078 1.5166965 -1.4918021 0.18936485
000180 a0 d6 02 40 a2 15 b9 bf ca e7 ca 3d c4 0e 4e bf
       2.0443497 -1.4459727 0.099074915 -0.8049128
000190 6b 76 87 be 52 25 89 3e 62 c0 85 be dc f6 20 3e
       -0.26457533 0.26786286 -0.2612334 0.1571917
0001a0 61 1c 01 be fc d3 a9 3d e5 f2 08 be 20 59 d6 3c
       -0.12608482 0.08292386 -0.13373907 0.026165545
0001b0 70 44 83 3e 78 b1 88 3e d0 e4 6f 3d b0 29 bf bc
       0.2563815 0.26697898 0.058567822 -0.023335308
0001c0 ee 5f 97 be 00 2b 44 bd a6 e4 88 3e 70 c4 48 3e
       -0.29565376 -0.04789257 0.26736945 0.19606185
0001d0 9c 53 c2 bd 39 e2 35 be 6a bb 8c 3e 90 7f ef bd
       -0.094886035 -0.17762078 0.27486736 -0.116942525
0001e0 50 00 12 be 40 b7 9e bb a8 a7 76 3d 34 58 c3 3d
       -0.14257932 -0.0048436224 0.060218483 0.09538308
0001f0 72 b8 97 3e ca 18 82 3e 40 12 06 3e 58 a2 09 3d
       0.29632908 0.25409538 0.130929 0.03360209
000200 c6 16 53 be d0 2a 28 3d e0 da 9b 3d e4 2d 46 3e
       -0.20614156 0.041056454 0.076101065 0.19353443
000210 08 62 e4 3d 3c 3e fb 3d 5e 19 36 be e8 61 44 bd
       0.111515105 0.1226773 -0.17783114 -0.047944933
000220 a0 a3 aa bd 50 da db bc ac 4f c2 3d 20 cc 6c bd
       -0.0833199 -0.026837498 0.094878525 -0.057811856
000230 9c d4 27 3e 00 40 82 bb bf 01 9c be ce 53 e9 bd
       0.16389698 -0.0039749146 -0.30470082 -0.113929376
000240 b8 99 30 3d 8c 95 8b 3e ba b4 80 be 60 99 05 bc
       0.043115348 0.27262533 -0.25137883 -0.008154243
000250 92 52 09 be 04 6b 73 3e 14 5f b9 3d f2 18 90 3e
       -0.13410404 0.23771292 0.09051338 0.28144032
000260 f4 f1 13 be e7 f9 8a be 68 1f 3a 3d 48 96 40 3e
       -0.14447767 -0.27143785 0.045440108 0.18807328
000270 8b 71 a2 be b8 9a 75 be 80 0c 45 3d 7a 35 93 3e
       -0.3172725 -0.23984802 0.048107624 0.28751737
000280 00 dc 7d 3b 1a bb 9e be 88 2e 67 3e 74 7b 91 be
       0.0038735867 -0.31002122 0.22576344 -0.284145
000290 ac 26 6e be 04 ff a0 be 80 91 83 bd e6 e7 08 3e
       -0.2325694 -0.3144456 -0.06424236 0.13369712
0002a0 40 27 07 3e 60 c9 08 3d 78 f2 37 3d b0 fa 5f 3d
       0.13198566 0.03339517 0.04490897 0.054682434
0002b0 10 00 02 bd fc 78 c1 3d 40 1e b1 bb e0 e8 07 3e
       -0.03173834 0.09446904 -0.0054052174 0.13272429
0002c0 92 e3 af 3e d0 42 22 bd b8 42 24 bd 9d d8 07 be
       0.3435331 -0.0396145 -0.04010269 -0.13266225
0002d0 20 1c 96 bc 48 b4 7a 3e d5 d6 ab be 9c d9 cd 3d
       -0.018323958 0.24482834 -0.3356234 0.10051271
0002e0 d0 f1 a7 3c c0 e5 91 be 20 93 14 3c 49 3e 26 be
       0.020501047 -0.28495598 0.00906828 -0.16234697
0002f0 6c b2 8d bd 04 bd 0b 3e 08 8c 36 3e 7c 2a ad 3e
       -0.06918797 0.13646322 0.17826855 0.33821476
000300 00 e2 7b be 58 3d 68 bd cc 1d af 3e 5e 33 87 be
       -0.24597931 -0.056699127 0.3420242 -0.26406378
000310 40 5d e1 3b a0 3c 74 3c b8 6f 8a be 6e 32 06 3e
       0.0068775713 0.014907032 -0.2703836 0.13105175
000320 3e bc ef be f3 a9 8e be fc b8 bf be d7 59 8c 3e
       -0.46823305 -0.27864036 -0.3744582 0.27412292
000330 75 d0 a2 bd 6c 1d 28 be 07 cc 98 be a5 1c 52 bf
       -0.07949916 -0.16417474 -0.2984316 -0.8207496
000340 6d 48 48 bf ae 9a 45 be 2a 7a 61 3e 5d 78 da 3c
       -0.7823551 -0.19297287 0.22019258 0.026668722
000350 9a a0 31 be b9 48 ca be 4d 21 11 3f eb e8 14 3f
       -0.17346421 -0.39508608 0.5669144 0.58167905
000360 28 48 14 3f ec 4b 58 3e 2f e2 ec 3d e8 85 1a 3f
       0.579226 0.21122712 0.115665786 0.60360575
000370 1f 18 ef 3e 6c 01 39 3f 3e 60 6d be 9a 1b 0e 3f
       0.4669809 0.72267795 -0.23181245 0.55510867
000380 5c c8 1a bf c0 80 7e be d2 10 43 bf 1a 9c bf 3e
       -0.60461974 -0.24853802 -0.7619754 0.37423784
000390 c6 66 de 3e 5b 7d 20 3d 37 20 99 3e bb 12 a3 3e
       0.43437785 0.03918205 0.2990739 0.31850228
0003a0 68 50 00 bf 7f 6b a9 3e d1 6a 9f be 43 34 ca be
       -0.5012269 0.33089826 -0.31136182 -0.39492998
0003b0 2c 6c 16 bf 18 2a 22 be c6 7d d9 be 90 ce b3 be
       -0.5875881 -0.1583637 -0.4247877 -0.35118532
0003c0 36 64 13 3e e2 61 ef 3e 52 32 cf bd c0 43 25 3e
       0.14393696 0.46754366 -0.1011702 0.16139126
0003d0 5d ee 53 bf 2b b6 df be 50 eb c7 be de 0d 81 3e
       -0.8278559 -0.4369367 -0.39046717 0.25205892
0003e0 b4 9b bc 3e 5f 91 48 be 1c 48 a3 be cb 27 eb be
       0.36837542 -0.19586705 -0.31890953 -0.45928797
0003f0 95 fe 94 3e 9d 59 a1 be 5b b9 f5 3e 37 78 f8 3e
       0.2910048 -0.31513682 0.47992977 0.48529217
