Top - MTM - LEFT/hand-gesture-recognition-mediapipe-main/model/keypoint_classifier/OLD/keypoint_classifier.tflite (tflite, 31668 bytes, 14 tensors)

sequential_1/lstm_3/Read_2/ReadVariableOp f4 [40]
0	0x3d84bbe5	0.064811505
1	0x3f02d818	0.5111098
2	0x3e9bddd6	0.30442685
3	0x3f3049b8	0.68862486
4	0x3f00a629	0.5025354
5	0x3e44ddcb	0.19225232
6	0x3f594d9b	0.8488404
7	0x3e66bdd5	0.22533353
8	0x3f87d1a6	1.0610855
9	0x3f74631d	0.95463735
10	0x3f800000	1.0
11	0x3f800000	1.0
12	0x3f800000	1.0
13	0x3f800000	1.0
14	0x3f800000	1.0
15	0x3f800000	1.0
16	0x3f800000	1.0
17	0x3f800000	1.0
18	0x3f800000	1.0
19	0x3f800000	1.0
20	0x3dc39afa	0.09551044
21	0xbdf99cf7	-0.12188142
22	0xbc956b06	-0.01823951
23	0x3b270be5	0.0025489267
24	0xbdbe68ed	-0.09297357
25	0x3d0aee7b	0.03391884
26	0xbdf22ebd	-0.11825321
27	0xbd375c9b	-0.04476605
28	0xbdc32dba	-0.09530206
29	0x3d598ff3	0.053115796
30	0x3dc53b70	0.096304774
31	0x3f10b53e	0.56526554
32	0x3ef17a15	0.47163454
33	0x3f05d5ec	0.52279544
34	0x3f3116e9	0.69175583
35	0x3e5f772d	0.21822806
36	0x3ee06d6e	0.43833488
37	0x3ee686c6	0.450247
38	0x3f4df988	0.8045888
39	0x3f4ab351	0.79179865

sequential_1/lstm_2/Read_2/ReadVariableOp f4 [40]
0	0x3e584b56	0.21122488
1	0x3e9ee426	0.31033438
2	0x3e71d50e	0.2361643
3	0x3e9af6f9	0.3026655
4	0x3e1cdb36	0.15317997
5	0x3e20a079	0.15686215
6	0x3e954064	0.2915069
7	0xbceba46b	-0.028764924
8	0x3d683583	0.056691658
9	0x3eb802dc	0.35939682
10	0x3f800000	1.0
11	0x3f800000	1.0
12	0x3f800000	1.0
13	0x3f800000	1.0
14	0x3f800000	1.0
15	0x3f800000	1.0
16	0x3f800000	1.0
17	0x3f800000	1.0
18	0x3f800000	1.0
19	0x3f800000	1.0
20	0x3e256394	0.16151267
21	0xbe691090	-0.22760224
22	0x3e6b8c45	0.23002727
23	0xbe010233	-0.12598495
24	0xbe05eefe	-0.1307945
25	0x3c387a0a	0.011259565
26	0x3c5ca0dc	0.013466086
27	0xbd55d08f	-0.05220085
28	0xbe621135	-0.22076876
29	0xbd2129b6	-0.03934642
30	0x3e179abe	0.14805123
31	0x3e2eb5fc	0.17061609
32	0x3ea8e40f	0.32986495
33	0x3c8531b5	0.016259054
34	0x3e3a4269	0.18189396
35	0x3de2bfcf	0.11071741
36	0x3dcf88ee	0.10133539
37	0x3e152b9c	0.14567417
38	0x3e244f42	0.1604586
39	0x3e8a7d1f	0.27048585

sequential_1/dense_5/BiasAdd/ReadVariableOp f4 [8]
0	0xbeb7cceb	-0.35898528
1	0x3f2292d4	0.6350529
2	0x3cbfa57d	0.02339434
3	0xbf30668a	-0.6890646
4	0x3dafc070	0.085816264
5	0x3f485b1b	0.78264016
6	0x3d1af341	0.03782964
7	0xbe9ab833	-0.30218658

sequential_1/dense_4/BiasAdd/ReadVariableOp f4 [10]
0	0x3eba1f83	0.36352167
1	0x3f414008	0.7548833
2	0x3ecb286e	0.39679283
3	0x3e19f3a5	0.1503435
4	0x3e836c96	0.25668782
5	0x3f06c174	0.52638936
6	0x3d53e1a8	0.051728874
7	0x3ec10e7a	0.37706357
8	0x3f527a82	0.8221818
9	0xbe17b977	-0.14816843

sequential_1/dense_3/BiasAdd/ReadVariableOp f4 [20]
0	0x3d06f005	0.032943744
1	0x3e3dc07d	0.1853046
2	0x3e198761	0.14993049
3	0x3d902580	0.070384026
4	0x3daf1d3f	0.085505
5	0x3e0d357d	0.13789935
6	0x3ca1cad6	0.01975004
7	0x3ea6747e	0.3251075
8	0x3dd1c2c4	0.10242227
9	0x3d33ca52	0.04389412
10	0x3e8311df	0.25599572
11	0x3e09ee64	0.13469845
12	0x3e315db9	0.17320909
13	0xbe01d504	-0.12678915
14	0x3d0ec4be	0.034855597
15	0x3df8bce9	0.12145407
16	0x3dfa0e58	0.12209767
17	0x3d434017	0.047668543
18	0x3e79b0f1	0.24383904
19	0x3de267a2	0.11054923

sequential_1/dense_3/MatMul f4 [20, 10]
0	0x3fa2295f	1.2668875
1	0x3e31dc66	0.17369232
2	0xbea6709f	-0.32507798
3	0x3f895a14	1.0730615
4	0xbf73615d	-0.9507044
5	0xbe9130cd	-0.28357545
6	0xbdcda8ec	-0.10041985
7	0xbe0f3c58	-0.13987863
8	0xbf6097db	-0.87731713
9	0x3ec35aa8	0.38155103
10	0xbe8b79f8	-0.27241492
11	0x3f51688a	0.8180014
12	0x3e86bc63	0.26315603
13	0x3f0f6358	0.5601096
14	0x3f18ae5c	0.5964105
15	0x3d93c6e6	0.07215671
16	0x3f5ffae8	0.8749223
17	0x3e21e313	0.15809278
18	0x3f523856	0.8211721
19	0xbe5e6a73	-0.21720295
20	0xbe62d962	-0.22153237
21	0x3f24196b	0.64101285
22	0x3e8df49a	0.2772568
23	0x3f47c1ee	0.7803029
24	0x3efd9878	0.49530387
25	0xbd2cf53a	-0.042226054
26	0x3f49eab8	0.7887378
27	0x3cf3242f	0.02968034
28	0x3f0320d9	0.51221997
29	0xbed94407	-0.42434713
30	0xbf566668	-0.8375001
31	0xbd3b07cd	-0.045661736
32	0xbf5bfff8	-0.8593745
33	0x3ecf21ac	0.40455377
34	0xbd9fbd80	-0.07799816
35	0xbfb250b5	-1.393088
36	0xbd725bcd	-0.05916958
37	0xbfb7669a	-1.4328187
38	0xbe6f18d4	-0.23349315
39	0x3d978562	0.07398488
40	0xbf2c3466	-0.67267454
41	0xbe09f925	-0.13473947
42	0xbfaaf759	-1.3356735
43	0xbccea67a	-0.025225867
44	0xbe17a1a4	-0.14807755
45	0xbf9252a8	-1.1431475
46	0xbd145aba	-0.036219336
47	0xbf988ec8	-1.1918573
48	0x3d13c89e	0.036079995
49	0x3e510aeb	0.20414321
50	0xbc67a7e0	-0.014139146
51	0x3edcf679	0.43156794
52	0x3e0648e8	0.13113749
53	0x3f47229b	0.7778718
54	0x3eee37c2	0.46526915
55	0xbe063d7b	-0.1310939
56	0x3f8a24fb	1.0792536
57	0xbde7cdb8	-0.113185346
58	0x3f003377	0.5007853
59	0xbe563606	-0.20919046
60	0xbf491c7c	-0.7855909
61	0xbf023120	-0.5085621
62	0xbf508496	-0.8145231
63	0xbeb1e05d	-0.34741488
64	0xbc2d0b00	-0.010561705
65	0xbf70712b	-0.9392268
66	0x3e595544	0.21223933
67	0xbf1bf943	-0.6092722
68	0x3e629b1e	0.22129485
69	0xbe46d3d7	-0.19416748
70	0xbf0644fa	-0.52449
71	0x3ef7399f	0.4828615
72	0x3f03f234	0.5154145
73	0x3efd855f	0.49515817
74	0x3f202f3f	0.6257209
75	0x3e2bb9ce	0.16770098
76	0x3fb21590	1.391283
77	0x3e4df897	0.20114361
78	0x3f537591	0.8260127
79	0xbf62ace5	-0.88545066
80	0xbf8d019e	-1.1016119
81	0xbf2e7083	-0.6814043
82	0xbf111d7d	-0.5668562
83	0xbf2676b0	-0.6502485
84	0xbd47478b	-0.048652213
85	0xbf5f7ab7	-0.87296623
86	0xbe4c3bb7	-0.19944654
87	0xbf865c3d	-1.0496899
88	0x3e78557a	0.24251357
89	0xbe529ac6	-0.20566854
90	0xbe7254fb	-0.2366523
91	0x3e9939d0	0.2992692
92	0x3ed81e12	0.42210442
93	0x3d79b801	0.060966495
94	0xbcce58f5	-0.025188902
95	0x3dc4de4e	0.09612714
96	0x3f003718	0.50084066
97	0x3ebf906b	0.3741487
98	0x3eaee628	0.3415997
99	0x3d3cb97e	0.046075337
100	0xbe1b5e71	-0.15172745
101	0x3e8dd75e	0.27703375
102	0x3d99aa79	0.07503218
103	0x3cb5e75b	0.022205045
104	0x3f1595c4	0.5843165
105	0x3db2baf6	0.08727066
106	0x3f9153f0	1.1353741
107	0xbd1a978c	-0.037742183
108	0x3f827d41	1.0194474
109	0xbf760aae	-0.96110046
110	0xbf5bba1f	-0.85830873
111	0xbeea90c6	-0.45813578
112	0xbf3f0315	-0.7461408
113	0xbee89f4f	-0.45434043
114	0xbde27df2	-0.110591784
115	0xbf84f82b	-1.0388235
116	0xbe70f093	-0.23529272
117	0xbfa860d0	-1.3154545
118	0xbd893ed6	-0.06701438
119	0x3e0362db	0.12830679
120	0xbeb4deb0	-0.35326147
121	0x3f3707f1	0.7149649
122	0x3d843c8e	0.064568624
123	0x3f044cbe	0.516796
124	0xbfa663cf	-1.2999209
125	0xbd13e952	-0.036111183
126	0xbf3a9e88	-0.7289815
127	0xbeadb53a	-0.33927327
128	0xbf943a16	-1.1580226
129	0x3fc285b2	1.519705
130	0x3f08ce87	0.53440136
131	0x3e8ca8cb	0.2747253
132	0x3eed6fdb	0.463744
133	0xbe932ec8	-0.2874663
134	0x3e32f089	0.1747457
135	0x3e8964ab	0.26834616
136	0x3e8f7180	0.2801628
137	0x3f0dbd1a	0.5536667
138	0x3d75015d	0.059815753
139	0xbd9b278f	-0.075759046
140	0xbf65e82b	-0.89807385
141	0xbebc8972	-0.36823612
142	0xbf4d1a2b	-0.80118054
143	0xbea9130f	-0.33022353
144	0x3b8c2d00	0.0042778254
145	0xbf1c87c4	-0.6114466
146	0x3cfc43d2	0.030794058
147	0xbf7b2522	-0.98103535
148	0x3e566e43	0.20940499
149	0xbe285675	-0.1643923
150	0xbf759263	-0.95926493
151	0xbf540040	-0.8281288
152	0xbfad997d	-1.3562466
153	0xbf66a49a	-0.9009491
154	0xbd66af3c	-0.05631946
155	0xbf6cd47b	-0.9251172
156	0x3d84982b	0.06474336
157	0xbfb7c546	-1.4357078
158	0x3dac656e	0.08417784
159	0x3e2a81d1	0.16651084
160	0x3c285edd	0.010276523
161	0x3d9987d0	0.07496607
162	0x3d8d1c12	0.068901196
163	0x3ead2c6f	0.33822963
164	0xbfdc8bc7	-1.7230157
165	0xbcf8cf37	-0.030372245
166	0xbf5c45ca	-0.8604399
167	0x3e3448f7	0.17605959
168	0xbf911535	-1.1334597
169	0x3fdea6f2	1.7394698
170	0xbea79078	-0.32727408
171	0x3d606c32	0.054790683
172	0x3e63efbc	0.2225942
173	0x3ec31c9c	0.38107765
174	0x3f63727d	0.8884657
175	0xbe891150	-0.2677102
176	0x3f5c5eb1	0.8608199
177	0xbe1db436	-0.15400776
178	0x3eb343e0	0.35012722
179	0xbf61bf47	-0.8818249
180	0xbe936ac1	-0.28792384
181	0x3f5bde30	0.85885906
182	0x3f0e8e61	0.55686
183	0x3f05e491	0.5230189
184	0x3f83a43b	1.0284494
185	0x3e892039	0.26782396
186	0x3f6ca122	0.9243337
187	0x3ea02a23	0.31282148
188	0x3f870203	1.0547489
189	0xbf59ad3e	-0.8502997
190	0x3ebdeb05	0.37093368
191	0x3e076478	0.1322192
192	0x3d41e311	0.047335688
193	0x3f01a46e	0.50641525
194	0xbfb6a341	-1.4268571
195	0x3cb06b86	0.021535646
196	0xbf42df8a	-0.76122344
197	0xbc4e8609	-0.012605199
198	0xbfb08356	-1.379008
199	0x3fd43bd7	1.6580762

sequential_1/dense_4/MatMul f4 [10, 20]
0	0xbf51d5f5	-0.819671
1	0x3ed8f25e	0.4237241
2	0x3e994698	0.2993667
3	0x3df0afc1	0.117522724
4	0x3e8fdb1e	0.2809686
5	0xbbd84ba2	-0.006600813
6	0x3f3bf9af	0.7342786
7	0x3f09c4e9	0.53816086
8	0x3eedc64e	0.46440357
9	0x3eead773	0.458675
10	0x3ee55d9a	0.44797975
11	0x3e13ccce	0.14433596
12	0xbe1e08c9	-0.15433039
13	0x3e49fc3e	0.19725129
14	0x3e625bba	0.22105303
15	0x3f2a8d47	0.6662182
16	0xbe932451	-0.28738645
17	0x3ed0cab6	0.40779656
18	0x3f917ba9	1.1365863
19	0xbe9f4f90	-0.3111539
20	0x3fcce75a	1.6008103
21	0x3f03fa09	0.515534
22	0x3de74195	0.11291806
23	0x3f150fbb	0.5822713
24	0x3f36107a	0.7111889
25	0x3eb56d9c	0.35435188
26	0x3e146bc5	0.14494236
27	0x3c934ffa	0.017982472
28	0x3e3d2253	0.18470125
29	0xbcc5ecca	-0.024160761
30	0x3ee9c7f9	0.4566038
31	0x3edaaabe	0.4270839
32	0x3fb6128b	1.4224409
33	0x3e7068be	0.23477456
34	0x3e220bdb	0.15824835
35	0x3daa9abc	0.083302945
36	0x3fbabbfa	1.4588616
37	0x3eaa569f	0.33269212
38	0x3e1460ff	0.14490126
39	0x3fc3938b	1.5279402
40	0x3e5fd10d	0.2185709
41	0xbf89e131	-1.0771848
42	0xbf9ffe75	-1.2499529
43	0x3efd84bd	0.49515334
44	0x3f161147	0.58620113
45	0xbf8025ef	-1.0011576
46	0x3eb281c5	0.3486463
47	0xbf4d989b	-0.8031098
48	0x3ed25f86	0.41088504
49	0xbf95acde	-1.169338
50	0xbedafe9b	-0.42772374
51	0x3f2b69f1	0.6695853
52	0x3ddf0e1d	0.10891364
53	0x3ee00342	0.43752486
54	0x3e7f67e9	0.24941982
55	0x3f1c8ca3	0.61152095
56	0x3e023eb9	0.1271924
57	0xbe9e50a7	-0.30920908
58	0xbf24b1f8	-0.6433406
59	0x3e0be6d1	0.13662268
60	0xbea79472	-0.32730442
61	0x3e4c706a	0.19964758
62	0x3dfd32de	0.12363218
63	0x3c432977	0.011911741
64	0x3ee8f350	0.45498133
65	0x3e6857cd	0.22689743
66	0x3f13beb3	0.5771286
67	0x3ed42015	0.41430727
68	0xbe22e40c	-0.15907305
69	0x3ea8a9c7	0.3294203
70	0x3c80440b	0.015657445
71	0x3ef1a3e3	0.47195348
72	0xbdbf1de6	-0.093318745
73	0x3ef47706	0.47747058
74	0x3f369436	0.713199
75	0xbfaa6f46	-1.3315208
76	0xbdd717bb	-0.10502573
77	0xbe3b64ea	-0.18300214
78	0xbf4ff6bd	-0.8123587
79	0xbe0e56f0	-0.13900352
80	0xbf3f6aa6	-0.7477211
81	0x3e108c8e	0.14116117
82	0x3e1885fc	0.14894861
83	0xbb956b43	-0.0045599057
84	0x3e680caa	0.22661081
85	0x3da73d2b	0.08165964
86	0x3e9e20ba	0.30884343
87	0x3e2e5502	0.17024615
88	0x3d8d5605	0.069011725
89	0x3f1297c8	0.5726285
90	0x3d6eb931	0.05828208
91	0x3e0b76f0	0.1361959
92	0xbed6cecc	-0.41954648
93	0x3f6936e2	0.9109937
94	0x3e8bd64f	0.27311942
95	0xbb924549	-0.004463826
96	0xbed2ca4b	-0.41169962
97	0x3e926af3	0.2859722
98	0x3ee25cad	0.4421133
99	0xbe89e42f	-0.26931903
100	0xbf4f93ca	-0.81084883
101	0x3e71d147	0.23614989
102	0x3c15f923	0.009153637
103	0xbccb0cc2	-0.024786357
104	0x3d0448b9	0.032295916
105	0x3eb021a1	0.34400657
106	0x3e09d0ae	0.13458511
107	0xbf7df781	-0.99205786
108	0x3f0968af	0.5367536
109	0xbc4930d5	-0.012279709
110	0x3e5d1b5d	0.2159247
111	0xbe280cd8	-0.1641115
112	0xbf121d0b	-0.57075566
113	0x3f030d1e	0.5119189
114	0x3e422d33	0.18962555
115	0x3eb56f41	0.35436442
116	0xbf039796	-0.51403177
117	0x3e239920	0.15976381
118	0xbd8433ac	-0.06455168
119	0xbee96efb	-0.45592484
120	0xbf23c568	-0.63973093
121	0x3e8ca0d0	0.2746644
122	0x3e18dd13	0.14928083
123	0xbf9c79cd	-1.2224671
124	0xbf9d2329	-1.2276355
125	0x3e37e57e	0.17958638
126	0xbf521917	-0.82069534
127	0x3dee11a2	0.11624457
128	0xbf129271	-0.572547
129	0x3ced13e4	0.028940149
130	0x3ec710f3	0.3888012
131	0xbf4e0df5	-0.80490047
132	0xbfa2600a	-1.2685559
133	0x3ea3d97a	0.3200186
134	0xbf5613d7	-0.83624023
135	0xbf4491af	-0.76784796
136	0xbfc82e9b	-1.5639223
137	0x3f3788dc	0.71693206
138	0x3ef2f153	0.4744974
139	0xbfae6fca	-1.3627865
140	0x3e5172b5	0.20453914
141	0xbf370ded	-0.71505624
142	0xbf3b5161	-0.7317105
143	0x3dce6b0e	0.10079013
144	0x3dd4de19	0.10393924
145	0xbf610aef	-0.8790731
146	0x3db96894	0.0905315
147	0xbeb3cbfa	-0.3511656
148	0x3d881d81	0.066462524
149	0xbe4174b4	-0.18892175
150	0xbf1b6578	-0.60701704
151	0xbe2d34c8	-0.16914666
152	0x3f258f89	0.6467214
153	0xbfa72b9e	-1.3060186
154	0x3e24d674	0.16097432
155	0xbd38435b	-0.04498611
156	0x3f2364c7	0.6382565
157	0xbefe5c0f	-0.4967961
158	0xbf031c5b	-0.5121514
159	0x3f165560	0.5872402
160	0x3e4beb66	0.19914016
161	0x3ebd195a	0.36933404
162	0x3ec4f75b	0.38469967
163	0xbf7da739	-0.99083287
164	0xbf8c19f7	-1.0945424
165	0x3ed9da6d	0.42549458
166	0xbfb5e9b8	-1.421195
167	0x3f2c0011	0.671876
168	0xbfb1531a	-1.3853486
169	0x3e65186c	0.22372597
170	0x3ea679e8	0.32514882
171	0xbfb21af3	-1.3914474
172	0x3da5f33a	0.081030324
173	0xbe5c69e5	-0.2152477
174	0xbfe777af	-1.80834
175	0xbf9db097	-1.2319516
176	0x3da7555f	0.0817058
177	0x3e7ef232	0.24897078
178	0x3de10ed8	0.10989159
179	0x3dc18d06	0.09450726
180	0xbe6f270c	-0.23354739
181	0x3e8083d9	0.25100592
182	0x3ebe16d8	0.37126803
183	0x3f48efc6	0.78490865
184	0x3f0d1a3b	0.5511815
185	0x3e0b7a98	0.13620985
186	0x3f4cf4c5	0.8006099
187	0x3ef9d118	0.48792338
188	0x3f7b20a5	0.98096687
189	0x3eb9241b	0.3616036
190	0x3eda079f	0.4258394
191	0x3f403411	0.7507945
192	0x3dffdb66	0.12493019
193	0x3f0b6a83	0.544594
194	0x3f47ee86	0.7809833
195	0x3f6ff4dc	0.93733
196	0x3e6ffe32	0.23436812
197	0x3e9a7946	0.3017065
198	0x3eb86563	0.36014852
199	0x3e2ced2a	0.16887346

sequential_1/dense_5/MatMul f4 [8, 10]
0	0xbe0ec4df	-0.13942288
1	0xbfde2924	-1.7356305
2	0xbf742973	-0.95375746
3	0xbf68cad1	-0.90934473
4	0xbd9eda0f	-0.07756435
5	0xbffc508f	-1.9712085
6	0xbe5cc905	-0.21561058
7	0xbf2690f5	-0.65064937
8	0xbf91a6af	-1.1378993
9	0xbf07e8a2	-0.53089345
10	0xbdc81748	-0.097700655
11	0x3e4f3ab9	0.20237245
12	0x3e98fc77	0.29880115
13	0xbf699948	-0.91249514
14	0x3c432a22	0.011911901
15	0xbf91c68a	-1.1388714
16	0x3f83df39	1.0302497
17	0x3edbc06f	0.42920253
18	0xbea7a738	-0.32744765
19	0xbe6c2387	-0.23060428
20	0x3f2b8b28	0.6700921
21	0x3ec6f03c	0.3885516
22	0xbf43a57e	-0.76424396
23	0xbcf226af	-0.029559461
24	0x3f1b2a57	0.6061148
25	0xbe63b081	-0.222353
26	0xbf8cad6d	-1.0990425
27	0xbea0c70c	-0.3140186
28	0xbee16c3e	-0.44027895
29	0x3f16168f	0.5862817
30	0x3f31f8f8	0.6952052
31	0xbe543994	-0.2072509
32	0x3e4fa843	0.2027903
33	0x3ed17aee	0.409141
34	0xbd1cdc7c	-0.038296208
35	0xbe71f8c9	-0.2363006
36	0x3ed583f3	0.41702232
37	0x3f56c796	0.83898294
38	0xbedcbfe8	-0.43115163
39	0x3ed645b0	0.41850042
40	0x3eecddd3	0.46262988
41	0xbf550017	-0.8320326
42	0x3f287741	0.6580697
43	0x3eaa8477	0.33304188
44	0x3ee7c5ec	0.4526819
45	0x3f016a98	0.50553274
46	0x3f702a77	0.93814796
47	0xbf0fff26	-0.562487
48	0x3f4ccb78	0.7999797
49	0xbe8f88ce	-0.2803406
50	0x3e79fb23	0.24412207
51	0x3ecd8020	0.40136814
52	0xc0483146	-3.1280074
53	0xbfc1a2f4	-1.5127854
54	0xbf4138ce	-0.754773
55	0xbf887369	-1.066022
56	0xbf7e2911	-0.9928141
57	0x3e86da36	0.26338357
58	0x3f01b3e4	0.50665116
59	0xbf4c370f	-0.7977151
60	0x3d4fe8fa	0.050759293
61	0x3e8e9f08	0.27855706
62	0x3e8cb8bf	0.274847
63	0xbf5ec941	-0.8702584
64	0x3e4670d2	0.19378975
65	0xbf8115ad	-1.008474
66	0x3d9ee93a	0.07759328
67	0x3d737775	0.059440095
68	0x3ed90561	0.42386916
69	0xbeaec7e4	-0.3413688
70	0xbf447c0f	-0.767518
71	0xbfc8d57d	-1.5690151
72	0xbfd858e2	-1.6902125
73	0xbeee0644	-0.46489155
74	0xbe97506e	-0.2955355
75	0xbfc9b6c8	-1.5758905
76	0xbf549fa6	-0.83056104
77	0xbf9dacd1	-1.2318364
78	0xbf8856ac	-1.065145
79	0xbf819bd8	-1.0125685

sequential_1/lstm_2/Read_2/ReadVariableOp1 f4 [40]
0	0x3e584b56	0.21122488
1	0x3e9ee426	0.31033438
2	0x3e71d50e	0.2361643
3	0x3e9af6f9	0.3026655
4	0x3e1cdb36	0.15317997
5	0x3e20a079	0.15686215
6	0x3e954064	0.2915069
7	0xbceba46b	-0.028764924
8	0x3d683583	0.056691658
9	0x3eb802dc	0.35939682
10	0x3f800000	1.0
11	0x3f800000	1.0
12	0x3f800000	1.0
13	0x3f800000	1.0
14	0x3f800000	1.0
15	0x3f800000	1.0
16	0x3f800000	1.0
17	0x3f800000	1.0
18	0x3f800000	1.0
19	0x3f800000	1.0
20	0x3e256394	0.16151267
21	0xbe691090	-0.22760224
22	0x3e6b8c45	0.23002727
23	0xbe010233	-0.12598495
24	0xbe05eefe	-0.1307945
25	0x3c387a0a	0.011259565
26	0x3c5ca0dc	0.013466086
27	0xbd55d08f	-0.05220085
28	0xbe621135	-0.22076876
29	0xbd2129b6	-0.03934642
30	0x3e179abe	0.14805123
31	0x3e2eb5fc	0.17061609
32	0x3ea8e40f	0.32986495
33	0x3c8531b5	0.016259054
34	0x3e3a4269	0.18189396
35	0x3de2bfcf	0.11071741
36	0x3dcf88ee	0.10133539
37	0x3e152b9c	0.14567417
38	0x3e244f42	0.1604586
39	0x3e8a7d1f	0.27048585

while/MatMul_11 f4 [40, 10]
0	0xbdf24f00	-0.11831474
1	0xbe50204d	-0.20324822
2	0xbe88b4fe	-0.26700586
3	0x3d971d55	0.073786415
4	0xbe16a5cc	-0.14711684
5	0xbbe61903	-0.0070220246
6	0xbe5608fb	-0.20901863
7	0x3e11a7cd	0.14224167
8	0x3db98fc9	0.09060628
9	0xbdab3dbd	-0.08361385
10	0x3dfa1675	0.122113146
11	0x3c51c5a4	0.012803469
12	0xbd8e112d	-0.0693687
13	0x3e3cd1b2	0.18439367
14	0xbd2ad539	-0.04170725
15	0xbe88acf1	-0.26694444
16	0xbdd94a20	-0.10609841
17	0xbe54f0aa	-0.20794931
18	0xbd22bef2	-0.03973288
19	0x3d055b6a	0.032557882
20	0x3c388f22	0.011264594
21	0xbe664d8f	-0.22490524
22	0x3e9dd386	0.30825442
23	0x3e01b31f	0.12665986
24	0x3e3f8bce	0.18705675
25	0xbde77d5d	-0.11303208
26	0xbe5b88c7	-0.21438895
27	0xbd8ffa90	-0.07030213
28	0x3ebc7bff	0.36813352
29	0xbe6c7038	-0.23089683
30	0x3e9dc055	0.308108
31	0xbda6c9be	-0.08143948
32	0xbdce7120	-0.10080171
33	0xbe531743	-0.20614342
34	0xbe27dec2	-0.16393569
35	0x3d771e04	0.06033136
36	0x3e4c41f8	0.1994704
37	0x3e5ab4b9	0.21358003
38	0x3be09414	0.00685359
39	0x3ca4e22c	0.020127378
40	0xbe7f0c82	-0.24907115
41	0xbd928630	-0.071545005
42	0x3e036a4d	0.1283352
43	0x3c05dd0d	0.008170378
44	0xbe06d6da	-0.13167897
45	0x3ddc7b63	0.10765722
46	0x3de0d22a	0.109775856
47	0x3d60b8fc	0.054863915
48	0xbc9076d4	-0.017634787
49	0x3db6b7d1	0.08921779
50	0x3aab0398	0.0013047336
51	0xbc80f644	-0.015742429
52	0x3b0c770b	0.002143326
53	0xbe317b67	-0.1733223
54	0xbca93133	-0.020653343
55	0x3c88a070	0.016678065
56	0xbde52235	-0.11188165
57	0xbcfab0c0	-0.03060186
58	0xbd0f255f	-0.03494775
59	0x3e176cba	0.1478757
60	0x3e738aba	0.23783389
61	0xbcb1b712	-0.02169374
62	0xbdad8fdc	-0.084747046
63	0x3ec4a128	0.38404202
64	0x3e3f36a8	0.18673193
65	0xbd513742	-0.05107809
66	0xbd4012c0	-0.04689288
67	0x3d840666	0.06446533
68	0xbd895e96	-0.06707494
69	0x3e72e845	0.23721416
70	0x3d8cf87f	0.06883334
71	0xbd07edfc	-0.033185944
72	0x3da15aa7	0.07878619
73	0x3d40c8ec	0.047066614
74	0xbd222fec	-0.039596483
75	0x3e8b7551	0.27237943
76	0xbd32a287	-0.04361203
77	0xbe0e5c9e	-0.13902518
78	0xbeb1583a	-0.34637624
79	0xbdc22438	-0.094795644
80	0xbb06b53b	-0.00205548
81	0x3df3961d	0.11893866
82	0x3da71225	0.08157758
83	0xbd809841	-0.0627904
84	0x3c2bcfc6	0.010486549
85	0xbe3bb7fa	-0.183319
86	0xbd097f8d	-0.033568908
87	0x3ea6785e	0.32513708
88	0x3e076503	0.13222127
89	0xbe41d9e4	-0.18930775
90	0xbe711ded	-0.23546572
91	0x3e662f0a	0.22478881
92	0xbd239ef2	-0.039946504
93	0xbe0ea859	-0.13931407
94	0x3daebda6	0.08532266
95	0xbd46ec8e	-0.04856544
96	0xbe218ac2	-0.15775588
97	0xbd856dbc	-0.06515071
98	0x3e44a28f	0.19202636
99	0x3e071f03	0.13195424
100	0x3d1b46d7	0.037909355
101	0xbe40153a	-0.18758097
102	0xbd5c7614	-0.053823546
103	0x3b9c5eb2	0.0047720307
104	0xbd0bcefb	-0.03413294
105	0xbe800858	-0.25006366
106	0xbddf9520	-0.10917115
107	0x3db1acb7	0.08675521
108	0xbe114067	-0.14184724
109	0x3dc3cb3b	0.095602475
110	0x3d46025a	0.048342086
111	0x3da4a5e2	0.08039452
112	0xbdc3873e	-0.0954728
113	0x3e80e024	0.25171006
114	0xbdd5b3da	-0.104346946
115	0xbe6a2dfb	-0.22869103
116	0x3da5cb74	0.08095446
117	0x3dccc837	0.099991255
118	0xbcb87943	-0.02251876
119	0xbda9b906	-0.082872435
120	0x3dee611f	0.11639618
121	0x3d545dea	0.051847376
122	0x3e73e224	0.23816735
123	0x3e911099	0.28332976
124	0x3d075a2b	0.033044975
125	0xbd035509	-0.032063518
126	0x3e871aaa	0.2638753
127	0xbe22727b	-0.15863983
128	0x3d0a6ffa	0.033798195
129	0x3d9cff92	0.07665934
130	0x3d1eb1d5	0.038743813
131	0xbe759390	-0.23982072
132	0x3e92f63d	0.2870349
133	0x3dac840f	0.08423626
134	0xbe1e825c	-0.15479416
135	0xbcfdeb72	-0.030996058
136	0x3cc7ab64	0.024373718
137	0x3e611d5c	0.21983856
138	0x3e252358	0.16126764
139	0x3e5de33d	0.21668716
140	0x3dc33fec	0.095336765
141	0xbe0cc156	-0.13745627
142	0x3dcbc8c2	0.09950401
143	0x3dea61de	0.11444448
144	0xbe7fd840	-0.24984837
145	0x3ea0d16b	0.31409773
146	0xbd835f09	-0.06414611
147	0x3dae5ba2	0.08513571
148	0x3e66d406	0.22541818
149	0xbdb72567	-0.08942681
150	0xbe026f82	-0.1273785
151	0xbe02c21f	-0.12769364
152	0xbcd435f3	-0.025904631
153	0x3b796b74	0.0038058432
154	0x3e5edeb0	0.21764636
155	0x3dc38e1b	0.09548589
156	0x3e00eeb3	0.12591057
157	0xbce1a9f0	-0.027546853
158	0x3d135280	0.03596735
159	0xbeab9170	-0.33509398
160	0x3cee6b59	0.029103922
161	0x3d847081	0.06466771
162	0xbdcaae9d	-0.09896586
163	0xbcd91caf	-0.026502935
164	0x3e8874ab	0.2665151
165	0x3e69a0af	0.22815202
166	0x3e8f6cb9	0.28012636
167	0x3e3e7673	0.18599872
168	0x3e27bf0c	0.16381472
169	0x3e78bed6	0.24291548
170	0xbb949b81	-0.004535139
171	0x3cc95fae	0.024581756
172	0xbdd8c36d	-0.105841495
173	0x3d62fbb6	0.05541583
174	0x3e42be86	0.19017991
175	0x3d91447c	0.070931405
176	0x3ba3d8cc	0.0050002094
177	0xbdcd5260	-0.100254774
178	0x3efb2a1f	0.49055573
179	0xbde79ea7	-0.113095574
180	0x3d58be5f	0.052915927
181	0x3e7da74f	0.24770854
182	0x3d060f1c	0.032729253
183	0xba2b8530	-0.0006542979
184	0xbe9457b1	-0.28973153
185	0xbc4467c9	-0.011987635
186	0x3e423d52	0.18968704
187	0xbc19abb3	-0.009379315
188	0x3d4441aa	0.047914185
189	0xbde15016	-0.11001603
190	0x3dd1b24a	0.10239084
191	0xbee853e1	-0.45376495
192	0x3d9d13dd	0.07669804
193	0xbdee20f6	-0.116273805
194	0x3eaab45d	0.3334073
195	0x3e1166b4	0.14199334
196	0xbe2c9dbb	-0.16857044
197	0x3db658d0	0.089036584
198	0xbdb52a30	-0.08845937
199	0xbc0d3eb9	-0.008620911
200	0xbd3e878b	-0.046515983
201	0x3ce91b76	0.028455477
202	0xbca29891	-0.01984814
203	0x3db26e18	0.08712405
204	0x3e13c7b9	0.14431657
205	0x3e678f9d	0.22613378
206	0xbe170122	-0.14746526
207	0xbdffde71	-0.12493599
208	0xbe17f582	-0.14839748
209	0xbe687013	-0.22699003
210	0x3b29fc52	0.0025937748
211	0x3d940645	0.07227758
212	0xbe1b5f1f	-0.15173005
213	0x3cab769f	0.020930586
214	0x3e8891ad	0.26673642
215	0x3db9d302	0.0907345
216	0x3e8653dc	0.26235855
217	0x3e589119	0.211491
218	0x3cb4c411	0.022066148
219	0xbe8ae204	-0.2712556
220	0x3e4c1782	0.19930843
221	0x3dae851a	0.08521481
222	0x3e6475ec	0.22310609
223	0xbea5c0a2	-0.3237353
224	0xbac82730	-0.0015270468
225	0xbcd571cf	-0.026055245
226	0xbd2d9e61	-0.04238737
227	0xbd21af2a	-0.03947369
228	0x3e0a6555	0.13515218
229	0xbcb263ab	-0.021776041
230	0x3e2e97be	0.17050073
231	0x3e8413ff	0.25796506
232	0xbe0b9e86	-0.1363469
233	0xbd47a426	-0.04874053
234	0x3e523338	0.20527351
235	0xbe5bb0c6	-0.21454152
236	0x3c855b25	0.016278813
237	0xbd3861ab	-0.04501502
238	0x3bb0fe1e	0.005401387
239	0xbe4200ec	-0.18945664
240	0x3de925ff	0.113842
241	0x3d8b6ec7	0.068082385
242	0xbd416c15	-0.047222216
243	0xbc685b5a	-0.014181936
244	0xbd97d3a6	-0.074134156
245	0x3e65ce94	0.22442085
246	0xbe03c720	-0.12868929
247	0x3e8c6286	0.27418917
248	0xbd900b0f	-0.07033359
249	0xbe958c68	-0.29208684
250	0x3e80e22e	0.2517256
251	0x3d10930e	0.035296492
252	0x3d1b9d7d	0.03799199
253	0x3d8df944	0.06932309
254	0x3d3f224e	0.046663575
255	0xbe1da460	-0.15394735

while/MatMul f4 [40, 42]
0	0x3e01253a	0.12611857
1	0xbda8330c	-0.082128614
2	0xbf9e6306	-1.237397
3	0xbf92eaa4	-1.1477857
4	0xbf9abe7b	-1.208938
5	0xbf27f3a0	-0.6560612
6	0xbf234efa	-0.63792384
7	0xbe3c23fc	-0.18373102
8	0xbebcf71c	-0.3690728
9	0xbdd5fa60	-0.10448146
10	0xbfd016aa	-1.6256917
11	0xbee54040	-0.4477558
12	0xbf759c7e	-0.95941913
13	0xbeab7556	-0.33487958
14	0xbecf6211	-0.40504506
15	0xbd3f6bea	-0.046733774
16	0xbe586ece	-0.21136019
17	0xbf09196e	-0.5355443
18	0xbfb6b3de	-1.4273641
19	0xbd94c4a1	-0.072640665
20	0xbf233b97	-0.637628
21	0xbec65574	-0.3873707
22	0xbcacaf79	-0.021079766
23	0xbe0f8317	-0.1401485
24	0x3f06bec2	0.52634823
25	0xbedd0153	-0.43165073
26	0xbf47cb30	-0.78044415
27	0x3de1aac7	0.11018901
28	0xbd972c57	-0.07381504
29	0xbe9c2dc6	-0.30503672
30	0x3ea53b4a	0.32271796
31	0xbe9cbffe	-0.30615228
32	0x3f398db3	0.7248184
33	0x3d31e981	0.043435577
34	0xbd0576af	-0.03258389
35	0x3d635f82	0.055511005
36	0x3ebfb872	0.37445408
37	0x3e92af39	0.2864931
38	0x3f40e15c	0.7534387
39	0xbd6a1c7a	-0.057156064
40	0x3f2188d9	0.6309944
41	0x3e88a784	0.26690304
42	0xbce65088	-0.028114572
43	0x3c7773c0	0.015103281
44	0xbe497fd6	-0.19677672
45	0x3d8a5454	0.067543656
46	0xbe2d743c	-0.16938871
47	0x3e1c9ad5	0.15293439
48	0x3e41c74c	0.18923682
49	0xbf20e81b	-0.62854165
50	0xbe5d3dbf	-0.21605586
51	0xbf43026f	-0.7617559
52	0x3e2fbe50	0.17162442
53	0xbee7c36f	-0.45266291
54	0xbdb6c8af	-0.08924996
55	0xbed60df9	-0.41807535
56	0x3e445b2e	0.19175407
57	0xbf13bacb	-0.577069
58	0xbe533556	-0.20625815
59	0xbf585d5e	-0.8451747
60	0x3dedd814	0.11613479
61	0xbe0f3366	-0.1398445
62	0x3cdd7709	0.0270343
63	0xbe6356b4	-0.22201043
64	0xbe8517f6	-0.25994843
65	0xbeddcec0	-0.433218
66	0xbede1aad	-0.43379727
67	0xbf4e5473	-0.8059761
68	0x3ec7b113	0.39002284
69	0xbe2c94ee	-0.16853687
70	0xbe5286a8	-0.2055918
71	0xbd5224c0	-0.05130458
72	0xbd7682e8	-0.060183436
73	0x3cc5e9e5	0.024159381
74	0x3d77708e	0.060410075
75	0xbf15615c	-0.58351684
76	0x3ec6a599	0.38798216
77	0x3db9bb39	0.09068913
78	0x3d98f789	0.074690886
79	0x3da470d9	0.080293365
80	0xbd83cdca	-0.064357355
81	0xbe651476	-0.22371086
82	0xbe1310af	-0.14361833
83	0xbe6a0053	-0.22851686
84	0x3e4d301c	0.20037884
85	0xbe08f7b6	-0.13375744
86	0x3ebaa367	0.3645279
87	0xbecd7bca	-0.40133506
88	0x3d55702b	0.052108925
89	0x3d569e0a	0.05239681
90	0xbdecae26	-0.11556654
91	0x3e12f6c8	0.14351952
92	0xbf332670	-0.69980526
93	0x3c2def83	0.010616186
94	0x3e8c4a5b	0.2740048
95	0xbe37f92b	-0.17966144
96	0xbe264be1	-0.16239883
97	0x3e83bc94	0.2572981
98	0x3c96de83	0.018416649
99	0xbe40119a	-0.18756714
100	0xbda7bef3	-0.081907175
101	0x3ea49b25	0.32149616
102	0xbea36b87	-0.31917974
103	0x3e09a3a2	0.13441327
104	0xbea1e281	-0.3161812
105	0xbe26180e	-0.16220114
106	0xbdfd3c36	-0.12365
107	0xbe5e2d7e	-0.21697041
108	0x3ab2789c	0.0013616267
109	0xbe0b552b	-0.13606708
110	0xbf07e37c	-0.5308149
111	0xbe6f778b	-0.23385446
112	0xbf91bab2	-1.13851
113	0x3e990ae4	0.2989112
114	0xbf35516a	-0.70827353
115	0xbdfbe26f	-0.12299048
116	0xbf07379a	-0.52819216
117	0x3d9a1cd4	0.0752503
118	0xbf60f7cb	-0.878781
119	0x3e9c30d4	0.30506003
120	0xbef1c40d	-0.47219887
121	0x3d3dccdd	0.04633795
122	0xbe092bc4	-0.13395602
123	0xbe8275d8	-0.25480533
124	0x3d9d8863	0.07692029
125	0xbe2e6383	-0.17030148
126	0xbe2b731a	-0.16743127
127	0x3e613cde	0.21995875
128	0xbf0ca9e1	-0.54946715
129	0x3ee3d345	0.44497123
130	0xbe96e927	-0.29474756
131	0x3ed1068b	0.40825304
132	0xbda70532	-0.08155288
133	0x3e0f78d1	0.14010932
134	0x3c228cc4	0.009921256
135	0x3d5d5b1a	0.05404196
136	0xbf89bb3a	-1.0760262
137	0x3d79d0c2	0.060990103
138	0xbf0608f2	-0.523574
139	0x3d7c2ba4	0.061565056
140	0xbdfec1be	-0.12439297
141	0xbe2d2850	-0.16909909
142	0xbedc6937	-0.43049023
143	0xbedbab84	-0.42904294
144	0xbe6b1265	-0.22956236
145	0x3e0e2a51	0.1388333
146	0xbe25fec1	-0.16210462
147	0xbd1153ba	-0.03548024
148	0xbe9b048d	-0.3027691
149	0xbd13e821	-0.036110047
150	0x3c8956c5	0.016765008
151	0xbe9f3c5e	-0.31100744
152	0x3e71f6c5	0.23629291
153	0x3e1ad9ac	0.15122098
154	0x3ce6d771	0.028178902
155	0xbe15913e	-0.14606187
156	0x3e21782d	0.157685
157	0x3df6eace	0.12056504
158	0x3ebe0e32	0.37120205
159	0x3c6a9abe	0.01431912
160	0x3ef48516	0.47757787
161	0x3e146de4	0.14495045
162	0x3f1c7ef2	0.61131203
163	0xbcf66c41	-0.030080916
164	0x3f4b9ff6	0.79540956
165	0x3e6e72d4	0.23285991
166	0x3f3cab3d	0.7369879
167	0x3c530798	0.012880228
168	0xbe265a7e	-0.16245458
169	0x3e7468e8	0.23868144
170	0xbe7e93e2	-0.248611
171	0x3f521ab3	0.8207199
172	0xbd014fc2	-0.031570204
173	0x3ef3dc76	0.47629136
174	0x3e1c032d	0.15235586
175	0xbeab3428	-0.3343823
176	0x3e804590	0.25053072
177	0xbeea2192	-0.45728737
178	0x3e88987e	0.26678842
179	0xbe229ce7	-0.15880166
180	0x3f3791eb	0.7170703
181	0xbdff3034	-0.12460366
182	0x3e4b68e0	0.19864225
183	0xbe824d6f	-0.25449702
184	0x3f159c86	0.5844196
185	0x3d903dd4	0.07043043
186	0x3e05cb42	0.13065818
187	0xbeff46ef	-0.49858806
188	0x3eac5273	0.33656654
189	0xbe66fffe	-0.22558591
190	0xbc06c22b	-0.008225004
191	0xbd9b7847	-0.075913005
192	0x3e586c9e	0.21135184
193	0xbed1b575	-0.40958753
194	0xbcc0b2b9	-0.023522722
195	0xbf02313a	-0.50856364
196	0xbca321ea	-0.019913632
197	0xbee11abb	-0.43965706
198	0x3e0086a8	0.12551367
199	0xbf20fa46	-0.62881887
200	0xbc7a4d28	-0.015277185
201	0xbef0ae6b	-0.4700807
202	0x3e44b1d5	0.19208463
203	0xbf3e8f58	-0.74437475
204	0x3e129af0	0.14316916
205	0xbe932777	-0.28741047
206	0x3e81b726	0.25335044
207	0xbefc63ee	-0.4929499
208	0x3e04bea5	0.1296335
209	0xbf2cbd69	-0.67476517
210	0xbdd8c53a	-0.10584493
211	0x3dfb90d0	0.1228348
212	0xbd3d378f	-0.046195563
213	0x3f1f5761	0.62242705
214	0x3e9eb9e7	0.31001207
215	0x3dfc47cb	0.12318381
216	0x3ea7d471	0.32779267
217	0xbe075dd5	-0.13219388
218	0x3f137c6c	0.5761173
219	0x3e539b16	0.2066463
220	0xbee7c3f6	-0.45266694
221	0xbe1ae0fb	-0.15124886
222	0xbf1b880b	-0.6075446
223	0xbe9efd4e	-0.3105263
224	0xbf05efd0	-0.5231905
225	0x3c142980	0.0090430975
226	0xbee7a4f0	-0.45243025
227	0xbe2a2268	-0.16614687
228	0xbca07936	-0.019589048
229	0x3d74fcdd	0.05981146
230	0xbdff8366	-0.12476234
231	0xbeee1d86	-0.465069
232	0xbe7c8573	-0.24660282
233	0xbe981a34	-0.2970749
234	0xbf3a1a57	-0.7269644
235	0xbcd5c485	-0.026094684
236	0x3e983f3e	0.2973575
237	0xbdea9f69	-0.11456186
238	0x3e24a4b2	0.16078451
239	0xbf0021c8	-0.50051546
240	0xbd190412	-0.037357397
241	0x3dbf6e82	0.093472496
242	0xbf1d0018	-0.6132827
243	0x3bec1680	0.0072048306
244	0xbe84fdbb	-0.2597483
245	0xbc84bfca	-0.016204733
246	0xbc675295	-0.01411881
247	0xbf0ad8cf	-0.54237074
248	0xbe7c59ed	-0.24643679
249	0x3c7dda52	0.015493946
250	0xbea9c324	-0.33156693
251	0xbe2d2501	-0.16908647
252	0xbddc7fe4	-0.10766581
253	0x3d93c688	0.07215601
254	0xbe8ba024	-0.27270615
255	0xbf6ef213	-0.93338126

sequential_1/lstm_3/Read_2/ReadVariableOp1 f4 [40]
0	0x3d84bbe5	0.064811505
1	0x3f02d818	0.5111098
2	0x3e9bddd6	0.30442685
3	0x3f3049b8	0.68862486
4	0x3f00a629	0.5025354
5	0x3e44ddcb	0.19225232
6	0x3f594d9b	0.8488404
7	0x3e66bdd5	0.22533353
8	0x3f87d1a6	1.0610855
9	0x3f74631d	0.95463735
10	0x3f800000	1.0
11	0x3f800000	1.0
12	0x3f800000	1.0
13	0x3f800000	1.0
14	0x3f800000	1.0
15	0x3f800000	1.0
16	0x3f800000	1.0
17	0x3f800000	1.0
18	0x3f800000	1.0
19	0x3f800000	1.0
20	0x3dc39afa	0.09551044
21	0xbdf99cf7	-0.12188142
22	0xbc956b06	-0.01823951
23	0x3b270be5	0.0025489267
24	0xbdbe68ed	-0.09297357
25	0x3d0aee7b	0.03391884
26	0xbdf22ebd	-0.11825321
27	0xbd375c9b	-0.04476605
28	0xbdc32dba	-0.09530206
29	0x3d598ff3	0.053115796
30	0x3dc53b70	0.096304774
31	0x3f10b53e	0.56526554
32	0x3ef17a15	0.47163454
33	0x3f05d5ec	0.52279544
34	0x3f3116e9	0.69175583
35	0x3e5f772d	0.21822806
36	0x3ee06d6e	0.43833488
37	0x3ee686c6	0.450247
38	0x3f4df988	0.8045888
39	0x3f4ab351	0.79179865

while/MatMul_14 f4 [40, 10]
0	0x3d9243d0	0.071418405
1	0xbe54c786	-0.20779237
2	0xbe88834e	-0.26662678
3	0x3e1f3be3	0.15550189
4	0xbb4ba3bd	-0.0031072937
5	0x3d51bc1d	0.05120479
6	0x3e0d683e	0.13809296
7	0x3dedc003	0.11608889
8	0x3d36f918	0.044671148
9	0x3e53141a	0.20613137
10	0x3a4a7e52	0.00077245117
11	0x3de33ec5	0.11095957
12	0x3bc5d5ab	0.006037434
13	0xbde61461	-0.11234356
14	0xbdf8a5ff	-0.12141036
15	0x3e8e5252	0.2779718
16	0xbd8b99d4	-0.0681645
17	0x3e77f338	0.24213874
18	0xbe41ac7b	-0.18913452
19	0x3eaf89f8	0.3428495
20	0xbded46ae	-0.11585747
21	0xbd160402	-0.036624916
22	0x3e6c9fbd	0.2310781
23	0x3e4f82f6	0.20264801
24	0xbdbe6953	-0.09297433
25	0x3ce53601	0.027979853
26	0xbd1788cd	-0.036995698
27	0x3e243ddc	0.16039222
28	0xbda47b66	-0.08031349
29	0x3e295e79	0.16539945
30	0x3db48d2e	0.088159904
31	0x3e9f8c68	0.3116181
32	0x3d5cbb8a	0.05388979
33	0x3bc054b0	0.0058694705
34	0xbd9dc2bf	-0.077031605
35	0xbd621398	-0.055194467
36	0x3ea2cb78	0.3179586
37	0xbd6bbfb3	-0.057555865
38	0x3db97511	0.09055532
39	0xbe50fd98	-0.20409238
40	0xbe1bf9bd	-0.15231986
41	0x3e226383	0.15858273
42	0xbd910975	-0.07081882
43	0xbd57916a	-0.052628912
44	0x3b278a58	0.0025564637
45	0xbe27c283	-0.16382794
46	0xbce92cd0	-0.028463751
47	0x3db0e59e	0.08637546
48	0xbd8ed930	-0.06975019
49	0x3e0f2138	0.13977516
50	0xbce27c10	-0.027647048
51	0xbd81e305	-0.06342129
52	0xbe447acb	-0.19187467
53	0x3cf955ce	0.030436423
54	0x3e06caba	0.13163272
55	0x3ccbc795	0.024875442
56	0x3d58c524	0.052922383
57	0x3de89b83	0.113577865
58	0x3e6cdbbb	0.23130696
59	0x3e23be12	0.15990475
60	0xbe842da5	-0.25816074
61	0x3e9b8238	0.30372787
62	0x3e1a8d00	0.1509285
63	0x3d874a94	0.066060215
64	0x3c4e0097	0.012573383
65	0x3d15ceb5	0.036574084
66	0x3e2bcb49	0.16776766
67	0xbd5599a7	-0.052148487
68	0xbec55f29	-0.38549164
69	0x3ca01814	0.019542731
70	0xbe51ec4c	-0.20500296
71	0x3e25da05	0.16196449
72	0xbe77bc6b	-0.2419297
73	0x3c1c82fe	0.009552715
74	0xbe888a31	-0.26667932
75	0xbd8568fd	-0.065141656
76	0x3e414d66	0.18877181
77	0xbd292d5c	-0.041303024
78	0x3da190cc	0.07888946
79	0x3d933a9b	0.071889125
80	0x3e16ffde	0.14746043
81	0x3ded1a9e	0.115773425
82	0xbe06a870	-0.13150191
83	0x3d8b1686	0.067914054
84	0x3ef0b52b	0.4701322
85	0x3dda5334	0.10660401
86	0x3e29b158	0.16571558
87	0x3d90e9ef	0.07075869
88	0x3e73547d	0.23762698
89	0x3e1b87d2	0.1518853
90	0x3df04ded	0.11733613
91	0xbe20b81a	-0.15695229
92	0x3d9df662	0.077130094
93	0x3dd730ec	0.10507378
94	0x3db54747	0.08851486
95	0xbde003d8	-0.10938233
96	0xbc8b4a7e	-0.017003294
97	0x3d6817b8	0.056663245
98	0x3d523da8	0.05132833
99	0x3e0e5522	0.13899663
100	0x3db0a014	0.086242825
101	0x3cd96613	0.02653793
102	0xbe81b8ee	-0.25336403
103	0xbeb0a401	-0.34500125
104	0x3e496bbd	0.19670005
105	0xbe1c4864	-0.1526199
106	0x3dd9a183	0.10626509
107	0x3dddc994	0.108294636
108	0xbda81a45	-0.082081355
109	0xbced51e9	-0.028969722
110	0x3cbd775f	0.02312821
111	0x3dd3a4e2	0.10334183
112	0x3c10e6d6	0.008844098
113	0x3d5d0869	0.0539631
114	0xbe030c24	-0.127976
115	0xbcba6b97	-0.022756381
116	0x3e847f74	0.2587849
117	0xbe03a3dd	-0.12855478
118	0x3e1789a7	0.14798604
119	0x3e483e96	0.19555125
120	0x3da8bdfc	0.08239362
121	0x3e5f8ac7	0.21830283
122	0x3e0cee53	0.13762788
123	0x3b6a163c	0.003571882
124	0x3e2cd60a	0.16878524
125	0x3c96e10e	0.018417861
126	0x3e20ad53	0.15691118
127	0xbe0fe1f5	-0.1405104
128	0xbe9cd03d	-0.30627623
129	0x3e9c6891	0.30548528
130	0xbe5ae1ea	-0.21375242
131	0xbe44bbc0	-0.19212246
132	0x3e3c9f0d	0.18420048
133	0xbded6827	-0.11592131
134	0xbbf007d4	-0.007325152
135	0x3e2d44d4	0.16920787
136	0x3c856855	0.016285101
137	0xbc7eb94c	-0.015547108
138	0x3e2bb4b8	0.16768157
139	0x3d1f5460	0.038898826
140	0xbd16ba4e	-0.036798768
141	0x3e0d3290	0.1378882
142	0xbe469584	-0.19392973
143	0x3dd73ffc	0.10510251
144	0xbd5986d4	-0.053107098
145	0xbe6c3d92	-0.23070362
146	0xbcd30550	-0.02575937
147	0x3e13f40e	0.14448568
148	0xbe89fa0a	-0.26948577
149	0xbe894f04	-0.26818097
150	0xbd9ef24d	-0.07761059
151	0xbe2e7523	-0.17036872
152	0x3e093206	0.13397989
153	0xbdbd55fc	-0.09244916
154	0x3db9089f	0.090348475
155	0x3e1acce5	0.15117224
156	0x3e099a72	0.13437822
157	0xbe407171	-0.18793274
158	0x3ae5e57c	0.0017539705
159	0x3d866c6b	0.06563648
160	0xbc04c7c5	-0.008104269
161	0xbd51ab07	-0.051188495
162	0x3e1f0064	0.15527493
163	0xbde6390f	-0.11241352
164	0xbe6c9cf3	-0.23106746
165	0xbd80832d	-0.0627502
166	0xbd40cf40	-0.04707265
167	0x3e8bc00e	0.27294964
168	0x3c4f588c	0.012655389
169	0x3beb60b6	0.0071831597
170	0xbe6d0d78	-0.23149669
171	0xbe90aada	-0.2825535
172	0xbd8488cc	-0.064714044
173	0xbe1f1ef1	-0.15539147
174	0x3dfee38d	0.124457456
175	0x3d173ac1	0.036921266
176	0x3d3c43c0	0.04596305
177	0xbe8b454d	-0.2720131
178	0x3d476472	0.048679776
179	0x3d194b06	0.037425064
180	0x3d178aa3	0.03699745
181	0x3c9afa6e	0.018918242
182	0x3e69b0da	0.2282137
183	0xbe1da8bd	-0.153964
184	0xbe8781cb	-0.26466212
185	0x3cb43aad	0.022000635
186	0x3d4eccf3	0.050488424
187	0xbe54b61f	-0.20772599
188	0x3da916c1	0.08256293
189	0x3d989d13	0.074518345
190	0xbcc73e86	-0.024321806
191	0x3d3d0f79	0.046157334
192	0xbdc0d974	-0.09416476
193	0xbdc62ec7	-0.09676891
194	0x3d9c89a7	0.076434426
195	0xbdb709dd	-0.08937428
196	0xbe35b60b	-0.17745225
197	0xbdef6e11	-0.116909154
198	0xbe1b2c4b	-0.15153615
199	0x3dd12465	0.1021202
200	0x3e39a128	0.18127882
201	0xba081d80	-0.0005192384
202	0x3bf66fe0	0.0075206608
203	0xbed54d39	-0.4166048
204	0xbdd0eaf2	-0.10201062
205	0x3e873fff	0.26416013
206	0xbce2e2fb	-0.027696123
207	0xbdd70c3e	-0.10500382
208	0x3d0d0a94	0.034433916
209	0xbd9d0ec0	-0.07668829
210	0x3e3b2275	0.18274863
211	0x3dadbd5c	0.08483383
212	0x3e5ae2a3	0.21375518
213	0xbe29ba37	-0.16574942
214	0x3d90ef5d	0.07076905
215	0x3e2779fc	0.16355127
216	0x3d8cfb6b	0.06883892
217	0x3e8ae01a	0.271241
218	0x3e1dcc99	0.15410079
219	0xbd1b7da6	-0.037961625
220	0x3ed2315f	0.41053292
221	0xbd1f3f5a	-0.038878776
222	0xbbaaaa70	-0.005208306
223	0x3e168314	0.1469844
224	0xbe519e45	-0.20470531
225	0x3d951eaa	0.07281239
226	0x3eb5d4b2	0.35513836
227	0x3d3905b6	0.045171462
228	0x3d30ed70	0.043195188
229	0xbdbb24f1	-0.091379054
230	0x3e207090	0.15667939
231	0x3e8aec5d	0.27133456
232	0xbd99d358	-0.07511014
233	0x3d9cde27	0.0765956
234	0x3d3d368e	0.046194606
235	0x3e9c3a9a	0.3051346
236	0xbec454c7	-0.3834593
237	0x3bc4e938	0.006009247
238	0x3d0a8ae4	0.033823863
239	0x3e2b2dbe	0.16716668
240	0xbd886727	-0.066603
241	0x3e968e00	0.29405212
242	0x3d89ed8a	0.0673476
243	0x3cf76210	0.030198127
244	0x3d6e5398	0.05818519
245	0xbe61e3d6	-0.22059569
246	0x3c749f39	0.01493054
247	0x3eac59b6	0.33662194
248	0x3ecbc813	0.39801082
249	0x3dc28c3f	0.09499406
250	0x3df57be6	0.119865224
251	0xbdfd2f26	-0.123625085
252	0x3e0eeeaa	0.1395823
253	0x3e8c1e33	0.2736679
254	0xbc585c4c	-0.013205599
255	0xbdf84105	-0.121217765

while/MatMul2 f4 [40, 10]
0	0xbf61b9ec	-0.8817432
1	0xbf6c490d	-0.92298967
2	0x3ed598f7	0.41718265
3	0x3f16c5a1	0.5889531
4	0xbd3615f9	-0.04445455
5	0x3e7d2f2f	0.2472503
6	0xbf9a570c	-1.2057815
7	0x3f971647	1.1803674
8	0xbf075398	-0.5286193
9	0x3e315998	0.17319334
10	0x3ee6cae9	0.45076683
11	0xbf3ababc	-0.72941184
12	0xbf3b2aab	-0.7311198
13	0x3f382552	0.71931946
14	0xbe4537f1	-0.19259621
15	0x3e780cb6	0.24223599
16	0x3d5c2d7a	0.053754307
17	0xbf546320	-0.8296375
18	0xbe5ebe60	-0.2175231
19	0x3e66d5c2	0.2254248
20	0x3f20dad3	0.628339
21	0xbf81dfcd	-1.0146424
22	0xbf039639	-0.51401097
23	0xbe3bd0c4	-0.18341357
24	0xbf6dd431	-0.92901903
25	0x3e745174	0.23859197
26	0x3f651734	0.8948853
27	0xbed158ee	-0.4088816
28	0xbfa9c32d	-1.3262688
29	0x3e7fccd9	0.24980487
30	0x3e80df96	0.25170583
31	0xbf18a422	-0.59625447
32	0x3d606f7d	0.054793824
33	0x3f86a49e	1.0518987
34	0xbed5e7e3	-0.41778478
35	0x3ed7f49c	0.4217881
36	0xbf50df30	-0.8159056
37	0xbf2492f1	-0.64286715
38	0xbe01e61b	-0.12685435
39	0xbefb36b6	-0.4906518
40	0x3d4775a7	0.048696186
41	0xbf4e3adc	-0.8055856
42	0xbee5bb99	-0.44869688
43	0xbfbd0650	-1.4767551
44	0xbd8ac086	-0.06775002
45	0xbfeb95db	-1.8405107
46	0xbd676a4e	-0.056497864
47	0x3d5324db	0.05154882
48	0xbf466479	-0.7749706
49	0x3e4ab6bf	0.19796275
50	0x3f9058a7	1.1277055
51	0xbf79dce6	-0.9760269
52	0x3f0d0f77	0.5510172
53	0x3ed6ecf1	0.41977647
54	0xbfd85931	-1.6902219
55	0x3dea4c1a	0.114402965
56	0x3ed4b0cd	0.41541138
57	0xbf0145f7	-0.5049738
58	0xbf7f5992	-0.9974605
59	0xbbc4a27a	-0.006000814
60	0x3f86a571	1.0519239
61	0xbef620d9	-0.48071936
62	0xbecaf01a	-0.39636308
63	0xbf6a8412	-0.91607773
64	0xbed0a6f3	-0.40752372
65	0xbf59d07f	-0.85083765
66	0x3ed7e413	0.42166194
67	0x3f2f1aec	0.68400455
68	0xbf293903	-0.6610262
69	0xbe06cd78	-0.13164318
70	0x3fb9a32a	1.4502919
71	0xbf98b08a	-1.1928875
72	0x3e98a77f	0.2981529
73	0x3e9e2dc5	0.30894294
74	0xbf88a73d	-1.0676037
75	0xbf145598	-0.57943106
76	0x3f340125	0.70314246
77	0xbe38de11	-0.18053462
78	0xbfa154d9	-1.2604018
79	0xbe77ae72	-0.2418764
80	0x3d929d3f	0.071588986
81	0xbf42635a	-0.7593285
82	0xbbab541c	-0.0052285325
83	0xbf42b549	-0.7605787
84	0xbecb152e	-0.39664596
85	0xbfac17c8	-1.3444757
86	0x3df71f46	0.12066512
87	0x3f5b34d3	0.8562748
88	0xbf4cac0a	-0.7995001
89	0x3ed043ba	0.4067667
90	0x3e94eebe	0.29088396
91	0xbf344dcc	-0.7043121
92	0xbda8c778	-0.08241171
93	0xbf345714	-0.7044537
94	0xbef14a16	-0.47126836
95	0xbfafec0d	-1.3743912
96	0xbe518be0	-0.20463514
97	0x3ea475d2	0.3212114
98	0xbf0d33a5	-0.5515693
99	0x3ef9ac58	0.487643
100	0xbe891e2c	-0.26780832
101	0x3e8d62a8	0.2761433
102	0x3e918a92	0.28426033
103	0xbe0db7c1	-0.13839628
104	0xbe4b42bf	-0.1984968
105	0xbe55ee8f	-0.20891784
106	0x3e2c75c8	0.16841805
107	0x3ea5a3da	0.3235157
108	0x3e483dfc	0.19554895
109	0x3e931aa4	0.28731263
110	0x3b0a8d80	0.002114147
111	0xbe49161c	-0.1963734
112	0xbd1427a8	-0.03617063
113	0x3e5a01d8	0.21289766
114	0xbe877660	-0.264575
115	0x3dec0be0	0.115257025
116	0xbd89ed48	-0.06734711
117	0x3e5b506c	0.21417397
118	0x3e3b6bc8	0.18302834
119	0x3d0e3ea0	0.034727693
120	0x3e69604c	0.2279064
121	0xbdf10312	-0.11768164
122	0x3d8dfe40	0.0693326
123	0x3ea83ce2	0.3285895
124	0xbdc04d0c	-0.093896955
125	0x3cadf5a0	0.021235287
126	0x3cd33700	0.025783062
127	0xbe88e8b5	-0.2674004
128	0x3ea90384	0.33010495
129	0x3e9070f4	0.28211176
130	0xbdec819c	-0.115481585
131	0xbe872717	-0.2639701
132	0x3e5e65e4	0.21718556
133	0x3e32dc88	0.17466938
134	0x3e96347e	0.29336923
135	0x3e924f9a	0.28576356
136	0x3e7680e8	0.24072611
137	0xbc9e30c0	-0.019310355
138	0xbeacf7af	-0.33782718
139	0x3dd236fc	0.10264394
140	0x3ead9f52	0.33910614
141	0xbe96ab89	-0.29427746
142	0x3e8896a6	0.26677436
143	0xbbab3a00	-0.00522542
144	0xbe5babdb	-0.21452276
145	0x3d1b7c98	0.03796062
146	0x3e797654	0.24361545
147	0xbe773d2a	-0.24144426
148	0x3da64fc0	0.0812068
149	0x3ce8cf60	0.028419197
150	0x3e45e4e8	0.19325602
151	0x3e898466	0.26858824
152	0x3c2409a0	0.01001206
153	0x3ead2b54	0.3382212
154	0xbe945f74	-0.28979075
155	0xbbabff80	-0.005248964
156	0x3e4e7e14	0.20165282
157	0xbeb0ab20	-0.34505558
158	0xbde3689c	-0.11103937
159	0x3debe748	0.11518723
160	0x3eaf1396	0.3419463
161	0x3e7c8fb4	0.24664193
162	0xbe888feb	-0.266723
163	0xbd958fd0	-0.07302821
164	0x3d855e10	0.065120816
165	0x3e3822dc	0.17982048
166	0x3d7f4f88	0.062331706
167	0x3ddd9e88	0.10821253
168	0x3ead85a6	0.33891028
169	0xbe6f9465	-0.23396452
170	0x3e8080aa	0.25098163
171	0x3e373b70	0.17893767
172	0x3e93a6d8	0.2883823
173	0x3e7ed6f4	0.24886686
174	0x3e94d2fa	0.29067212
175	0xbd234fd0	-0.039871037
176	0xbe0882b9	-0.13331117
177	0x3ea40f1e	0.32042783
178	0x3e2e4b7c	0.17020983
179	0xbe94f380	-0.29092026
180	0xbde5744c	-0.112038225
181	0xbd0e5278	-0.034746617
182	0xbd770c18	-0.060314268
183	0xbea0481f	-0.31305024
184	0x3e372424	0.1788488
185	0x3d9d5c4c	0.0768362
186	0xbeadabad	-0.3392004
187	0x3e9a5462	0.30142504
188	0x3e06e4f6	0.13173279
189	0xbcea6310	-0.02861169
190	0x3d1f97a0	0.03896296
191	0x3de2e308	0.11078459
192	0x3e656d1c	0.22404903
193	0x3e9324a6	0.28738898
194	0x3e5339bc	0.20627493
195	0xbe4976f9	-0.1967429
196	0x3e43f270	0.19135451
197	0x3e55995c	0.20859283
198	0xbe9bdc00	-0.30441284
199	0x3e739720	0.23788118
200	0xbe01c76f	-0.12673734
201	0x3ca64bc3	0.020299798
202	0xbf185507	-0.5950474
203	0xbeba1deb	-0.3635095
204	0x3fb08209	1.3789684
205	0xbf03fd6a	-0.51558554
206	0x3f098151	0.53712946
207	0xbcc63a4f	-0.024197726
208	0x3ec70703	0.38872537
209	0x3e74a69f	0.23891686
210	0x3dbea785	0.093092956
211	0x3b4c77ba	0.0031199292
212	0xbd2a86ff	-0.04163265
213	0xbe73572b	-0.2376372
214	0x3ea45c0f	0.32101485
215	0xbf141450	-0.57843494
216	0xbe864573	-0.2622486
217	0xbf5048cb	-0.81361073
218	0x3ed92ee0	0.42418575
219	0x3eb25745	0.34832206
220	0x3d08bccf	0.033383187
221	0x3efa36a5	0.48869815
222	0x3d9b706c	0.07589802
223	0xbed1846d	-0.40921345
224	0x3f1d8e02	0.6154481
225	0xbe9bb01e	-0.30407804
226	0x3e53986f	0.20663618
227	0xbf69d836	-0.91345537
228	0xbd971b78	-0.07378286
229	0x3e874b28	0.26424527
230	0x3f006c5d	0.5016535
231	0x3ebc7c35	0.36813512
232	0x3ecd9114	0.40149748
233	0xbf016186	-0.50539434
234	0x3f10a12b	0.5649592
235	0xbf5a930c	-0.85380626
236	0xbea7331f	-0.3265619
237	0xbf0e008d	-0.5546959
238	0x3ef578e4	0.47943795
239	0x3e8f31ef	0.27967784
240	0x3ea47a0b	0.3212436
241	0x3df2727c	0.118382424
242	0x3f2d85c8	0.6778226
243	0x3ebee5ed	0.37284794
244	0x3d024595	0.03180464
245	0x3ec651b1	0.387342
246	0xbe7f2b09	-0.2491876
247	0xbf323617	-0.69613785
248	0xbdabdc27	-0.083916
249	0x3f32c367	0.6982941
250	0xbbf03e0d	-0.007331616
251	0x3e16a16d	0.14710017
252	0xbe73dbd4	-0.23814327
253	0xbf0b6213	-0.54446524
254	0x3ea11914	0.31464446
255	0xbe390763	-0.18069224
