Top - MTM - Right/hand-gesture-recognition-mediapipe-main/model/keypoint_classifier/keypoint_classifier.tflite (tflite, 31624 bytes, 14 tensors)

sequential_2/lstm_5/Read_2/ReadVariableOp f4 [40]
0	0x3ecc5aab	0.39912924
1	0x3e8371dd	0.25672808
2	0x3f1f46e1	0.6221753
3	0x3ed70a81	0.420002
4	0x3e5c9e03	0.21544652
5	0x3f27046a	0.6524111
6	0x3f3997cb	0.7249724
7	0x3dd1dbeb	0.10247024
8	0x3f354495	0.7080777
9	0x3f7cedf7	0.98800606
10	0x3f800000	1.0
11	0x3f800000	1.0
12	0x3f800000	1.0
13	0x3f800000	1.0
14	0x3f800000	1.0
15	0x3f800000	1.0
16	0x3f800000	1.0
17	0x3f800000	1.0
18	0x3f800000	1.0
19	0x3f800000	1.0
20	0x3e9ae231	0.30250695
21	0xbceabe4f	-0.0286552
22	0xbea3c790	-0.31988192
23	0x3c9b539b	0.018960765
24	0xbe7c2133	-0.2462204
25	0xbe3ff1d5	-0.18744595
26	0xbe4097bd	-0.18807884
27	0xbdbde762	-0.092726484
28	0xbe0724b2	-0.13197592
29	0x3e99f251	0.30067685
30	0x3f10d757	0.5657858
31	0x3ef9391d	0.48676386
32	0x3e95622c	0.29176462
33	0x3f097b95	0.53704196
34	0x3e7c0e7d	0.24614902
35	0x3ec0f17c	0.37684238
36	0x3eff45f9	0.49858072
37	0x3da21ce4	0.07915667
38	0x3f0868ef	0.53285116
39	0x3f3536a5	0.70786506

sequential_2/lstm_4/Read_2/ReadVariableOp f4 [40]
0	0x3f024125	0.5088065
1	0xbd577ec0	-0.052611113
2	0x3e0ccb0b	0.1374933
3	0x3dc4667b	0.09589859
4	0xbe8798f1	-0.26483873
5	0xbd96e1ec	-0.0736731
6	0xbddd0996	-0.10792844
7	0xbeb27445	-0.34854332
8	0x3ea510c8	0.32239366
9	0x3e8ab680	0.2709236
10	0x3f800000	1.0
11	0x3f800000	1.0
12	0x3f800000	1.0
13	0x3f800000	1.0
14	0x3f800000	1.0
15	0x3f800000	1.0
16	0x3f800000	1.0
17	0x3f800000	1.0
18	0x3f800000	1.0
19	0x3f800000	1.0
20	0xbe9ce297	-0.30641624
21	0xbd8e9d78	-0.069636285
22	0x3d9bbd81	0.076045044
23	0x3dd641d1	0.10461772
24	0x3dd196ba	0.10233827
25	0xbd15f7c9	-0.03661326
26	0xbc8d77be	-0.017269012
27	0x3e62c536	0.22145543
28	0x3da31827	0.07963591
29	0xbeeff668	-0.4686768
30	0x3e905f83	0.2819787
31	0x3e3f912c	0.18707722
32	0x3e3b74d6	0.18306288
33	0x3d8212ff	0.063512795
34	0xbe9c520f	-0.30531356
35	0x3df2eb74	0.11861315
36	0x3c4671a1	0.012112052
37	0xbee347e8	-0.44390798
38	0x3f2b84c3	0.66999453
39	0xbd235af3	-0.039881658

sequential_2/dense_8/BiasAdd/ReadVariableOp f4 [7]
0	0xbf9babd2	-1.216181
1	0x3d98aa09	0.07454307
2	0x3e58d9db	0.21176855
3	0x3f259c2b	0.6469142
4	0xbe8ac6bb	-0.27104744
5	0x3dac5103	0.08413889
6	0xbdcf2e3f	-0.101162426

sequential_2/dense_7/BiasAdd/ReadVariableOp f4 [10]
0	0x3f50c1fc	0.81545997
1	0xbd2f91b3	-0.04286356
2	0xbe1b435b	-0.15162413
3	0x3ec11e17	0.3771827
4	0xbd8c2e9a	-0.06844826
5	0x3f3577d0	0.70885944
6	0x3f472c83	0.77802294
7	0x3f521cf4	0.8207543
8	0x3e0033d5	0.12519772
9	0x3f2f0e80	0.683815

sequential_2/dense_6/BiasAdd/ReadVariableOp f4 [20]
0	0x3e04f62a	0.12984529
1	0x3d859e33	0.06524315
2	0xbd0130ce	-0.031540684
3	0xbc965537	-0.01835118
4	0x3e1c9c07	0.15293895
5	0x3d3994a6	0.045307778
6	0x3da7504d	0.08169613
7	0xbaca7054	-0.0015444853
8	0xbd05349d	-0.03252088
9	0xbc087300	-0.008328199
10	0xbce4e2a3	-0.0279401
11	0xbdfa9049	-0.122345515
12	0x3ce312d8	0.027718946
13	0x3b23adf7	0.0024975517
14	0x3e078cae	0.13237259
15	0xbce6552e	-0.028116789
16	0x3d3fff86	0.046874546
17	0xbcc1735b	-0.023614576
18	0xbd5eefb4	-0.054427817
19	0x3e559e87	0.20861255

sequential_2/dense_6/MatMul f4 [20, 10]
0	0xbd0d764c	-0.034536645
1	0xbe9cdaf4	-0.30635798
2	0x3cb6191d	0.022228772
3	0x3f9dcbdc	1.2327838
4	0x3f0830e6	0.53199613
5	0xbf2ab48a	-0.6668173
6	0x3e9a7541	0.30167583
7	0x3f89eb97	1.0775021
8	0x3f84884d	1.0354096
9	0xbfb6e492	-1.4288504
10	0x3fae24cc	1.360498
11	0x3ec4971f	0.38396546
12	0xbfabe287	-1.3428506
13	0x3eafc67a	0.34331113
14	0x3eb07d6b	0.34470686
15	0xbf894ac2	-1.0725939
16	0x3ef93c00	0.4867859
17	0x3e316256	0.17322668
18	0x3e48841c	0.19581646
19	0x3ded07f8	0.115737855
20	0xbd6c14f9	-0.05763719
21	0x3ec0dacf	0.37666938
22	0x3dc77ed3	0.09740987
23	0x3d53f09d	0.05174314
24	0x3f2bb1b3	0.6706802
25	0xbf051872	-0.51990426
26	0x3f130d52	0.574422
27	0x3fc0660e	1.5031145
28	0x3f55afd1	0.834714
29	0xbf083aa8	-0.532145
30	0xbeb84ac8	-0.35994554
31	0x3f2942d8	0.6611762
32	0xbbea63b4	-0.007152999
33	0xbe4c0449	-0.1992351
34	0x3faf3cdc	1.3690448
35	0xbec959d2	-0.3932634
36	0x401a3eae	2.4100757
37	0xbedd45b6	-0.43217248
38	0xbea8ea73	-0.3299137
39	0x3daaa36e	0.08331953
40	0xbec3f9b4	-0.38276446
41	0x3dabf11a	0.08395596
42	0xbea8d426	-0.32974356
43	0x400a1877	2.1577432
44	0x3f032d60	0.5124111
45	0xbfafc291	-1.3731252
46	0x3eab4af6	0.33455628
47	0x3f4d4cfc	0.80195594
48	0x3f35b3b5	0.70977336
49	0xbf3a09ed	-0.72671396
50	0xbf21adba	-0.6315571
51	0xbdf7994d	-0.12089787
52	0x3f118ca7	0.56855243
53	0xbe225ca1	-0.15855648
54	0x3fc18d68	1.5121279
55	0x3e40f440	0.18843174
56	0x3fc48e39	1.5355903
57	0xbe956384	-0.29177487
58	0xbe2a3544	-0.16621882
59	0xbef13bc6	-0.47115916
60	0x3f342b06	0.7037815
61	0x3e1f3d27	0.15550672
62	0xbe889f0d	-0.26683846
63	0x3f31aafa	0.69401515
64	0x3e71892b	0.23587482
65	0xbf2ab288	-0.6667867
66	0x3e207ad2	0.15671852
67	0x3f9e7134	1.2378297
68	0x3f220c02	0.6329957
69	0xbe3a6b8f	-0.18205093
70	0xbeb5cf5e	-0.3550977
71	0xc0222757	-2.533651
72	0xbe91966b	-0.28435072
73	0x3da7aad4	0.0818688
74	0xbf0e3899	-0.5555511
75	0xbe0d3674	-0.13790303
76	0xbf0a9235	-0.54129344
77	0xbff5143d	-1.9146801
78	0xc00f549a	-2.2395387
79	0xbd898905	-0.067155875
80	0x3fa8e5df	1.3195151
81	0xbce0444d	-0.027376318
82	0xbfdebbb2	-1.740103
83	0x3e441dbe	0.1915197
84	0xc00d05e8	-2.2034855
85	0xbe9dbef4	-0.30809748
86	0xbf817805	-1.0114752
87	0x3dec2d47	0.115320735
88	0x3dc55670	0.09635627
89	0xbdaf2cab	-0.085534416
90	0xbf35c5c4	-0.7100489
91	0xbe63c112	-0.22241619
92	0x3ecfb677	0.40568897
93	0x3eac369b	0.3363541
94	0xbf07e7b4	-0.53087926
95	0x3e8f203e	0.27954286
96	0x3da31980	0.07963848
97	0x3ed33216	0.4124915
98	0x3f68f1a8	0.9099374
99	0xc0251ca6	-2.5798736
100	0xbf0fb64f	-0.56137556
101	0xc046143c	-3.094985
102	0xbe6d55c0	-0.23177242
103	0x3d06f149	0.03294495
104	0xbf01c75e	-0.50694835
105	0xbe1b5f1c	-0.15173
106	0xbef6892c	-0.4815153
107	0xc0012ca8	-2.0183506
108	0xc0043de9	-2.0662787
109	0xbd6befdc	-0.057601795
110	0xbdee6c64	-0.116417676
111	0x3f9c2bdd	1.2200886
112	0x3e16d263	0.14728694
113	0xbf78b571	-0.9715186
114	0x3f899c90	1.0750904
115	0xbe944c46	-0.28964442
116	0x3ffc222c	1.9697928
117	0xbe6fdc01	-0.23423769
118	0xbe1a3cc9	-0.1506225
119	0x3ea185f4	0.3154751
120	0xbe47b5cc	-0.19502944
121	0x3f526006	0.8217777
122	0x3db52320	0.0884459
123	0xbe0d3bff	-0.13792418
124	0x3fbe1a77	1.4851826
125	0xbcbb49bb	-0.022862306
126	0x4036eb04	2.8580942
127	0xbd7b4812	-0.06134803
128	0x3e04ab17	0.1295589
129	0xbe8e47bf	-0.27789113
130	0xbfa86f1e	-1.315891
131	0xbdb7e817	-0.089798145
132	0x3f000368	0.500052
133	0x3ece46ea	0.40288478
134	0xbf3c13a5	-0.73467475
135	0xbe369897	-0.17831646
136	0xbe330539	-0.17482461
137	0x3eb12e2f	0.34605548
138	0x3f0829ca	0.53188765
139	0xc0180672	-2.3753934
140	0xbe61e75f	-0.22060917
141	0xbe7495a1	-0.23885204
142	0xbd6eb635	-0.058279235
143	0x3fdfcc57	1.7484235
144	0x3f8c15eb	1.0944189
145	0xbfa30e7d	-1.2738796
146	0x3f06cb96	0.526544
147	0x3f6f6f45	0.9352916
148	0x3f687263	0.9079954
149	0xbf65fc63	-0.89838237
150	0x3f9efe82	1.242142
151	0xbd7f5cfd	-0.06234454
152	0xbfcb121c	-1.5864902
153	0x3e2e4443	0.17018227
154	0xbfe2cd66	-1.7718933
155	0xbe5aeb91	-0.21378924
156	0xbf98ab83	-1.1927341
157	0x3d4db5d7	0.050222244
158	0x3cd8aa3d	0.026448363
159	0xbec845f7	-0.3911588
160	0xbe449d3b	-0.19200604
161	0x3f6b19e0	0.9183636
162	0x3e8e1740	0.27752113
163	0xbec23240	-0.37928963
164	0x3fcd2829	1.6027881
165	0x3e47081e	0.1943669
166	0x4027ffff	2.6249998
167	0x3e100ddc	0.14067787
168	0x3f1b3265	0.6062377
169	0xbf2190be	-0.63111484
170	0x40042c61	2.0652087
171	0x3e368f3a	0.17828074
172	0xbfe9c30e	-1.8262651
173	0x3e944455	0.28958383
174	0xbf63acdc	-0.8893564
175	0xbedf06b5	-0.43559805
176	0xbe92f262	-0.28700548
177	0xbd00c69c	-0.03143941
178	0xbd86e170	-0.065859675
179	0x3f12e302	0.57377636
180	0xbf9c5984	-1.2214818
181	0x3e0524d0	0.13002324
182	0x3ec3364c	0.38127363
183	0x3e942284	0.28932583
184	0xbf5ef3a9	-0.87090546
185	0x3e1c5ea8	0.15270483
186	0xbf14b331	-0.58085924
187	0xbdaed8d2	-0.08537449
188	0x3ede84fa	0.43460828
189	0xc02dcb57	-2.7155359
190	0xbe6f87ca	-0.23391643
191	0x3f3e1ef1	0.7426596
192	0xbc8484d0	-0.016176611
193	0x3f622ed2	0.8835269
194	0x401a5088	2.4111652
195	0xbfa22906	-1.2668769
196	0x40195c18	2.396246
197	0x3f8dc5d2	1.1075995
198	0x3fa90244	1.3203816
199	0xbfcb0e8f	-1.5863818

sequential_2/dense_7/MatMul f4 [10, 20]
0	0x3f17053d	0.5899237
1	0xbe247642	-0.16060737
2	0x3f17a0cd	0.5922974
3	0xbfb3e8bc	-1.40554
4	0x3ebfac4b	0.37436137
5	0xbbe579cb	-0.0070030442
6	0x3f00fb6b	0.50383633
7	0xbe336e66	-0.17522582
8	0xbeb771df	-0.35829064
9	0x3fd9eaed	1.7024819
10	0xbe0e780d	-0.13912983
11	0xbf72b3f6	-0.9480585
12	0xbed97561	-0.42472365
13	0x3f8f18eb	1.1179479
14	0x3eb71008	0.35754418
15	0xbecc5c11	-0.3991399
16	0xbec4bd4e	-0.38425678
17	0xbebf582a	-0.3737195
18	0x3feac396	1.8340938
19	0x3f1c15d2	0.60970795
20	0xbea55dbb	-0.32298073
21	0xbaa76623	-0.0012771528
22	0xbe4fe998	-0.20303953
23	0xbb91b680	-0.0044468045
24	0xbe5ee3dc	-0.21766609
25	0x3e15a5b5	0.14613993
26	0xbec47180	-0.38367844
27	0xbf953ca0	-1.1659126
28	0xbf05103c	-0.51977897
29	0xbdf1bd9c	-0.11803743
30	0xbf8fc993	-1.123339
31	0x3fa00def	1.2504252
32	0xbf26ae25	-0.65109473
33	0xbd9e8444	-0.077400714
34	0x3f5f3275	0.87186366
35	0xbf021b07	-0.5082249
36	0x3cc861ac	0.024460636
37	0xbdf14cac	-0.11782202
38	0xbe3701d7	-0.17871796
39	0xbf1b6965	-0.60707694
40	0xbd312320	-0.04324639
41	0xc0032d55	-2.0496418
42	0x3d43a0d0	0.047760785
43	0x3f57400f	0.8408212
44	0x3d1667c1	0.03672004
45	0x3eec472f	0.4614806
46	0xbe84f693	-0.2596937
47	0x3f2e8c5f	0.6818294
48	0xbfb7e99c	-1.4368167
49	0xbe2c4d29	-0.1682631
50	0x3f33c921	0.70228773
51	0x3f04bce2	0.5185071
52	0xbe05015b	-0.12988798
53	0x3d30f39f	0.043201085
54	0x3dd470d1	0.103730805
55	0xbfb67d44	-1.4256978
56	0xbe96e0b7	-0.2946832
57	0xc00b9d0b	-2.1814601
58	0x3d88f06c	0.06686482
59	0xbe408c7e	-0.18803594
60	0x3ee93ce4	0.45554268
61	0xbe2b486d	-0.16726847
62	0x3e97ed94	0.29673445
63	0x3f483293	0.7820217
64	0x3ef39559	0.4757488
65	0x3f2dbbea	0.6786486
66	0xbe83d959	-0.2575176
67	0xbff083b9	-1.8790199
68	0xbfc22675	-1.5167986
69	0x3f23617c	0.63820624
70	0xc003df43	-2.0605018
71	0x3f213d1f	0.6298389
72	0x3f3c5179	0.7356182
73	0x3f1cec6c	0.6129825
74	0x3ea31f6c	0.3185991
75	0xbfc87969	-1.5662051
76	0x3f9d383d	1.2282788
77	0xbf86f95f	-1.0544852
78	0x3e29162b	0.16512363
79	0x3ee8940f	0.4542546
80	0x3bbdcb05	0.005792024
81	0xbdcf9d28	-0.10137397
82	0xbe2894e3	-0.16463046
83	0x3e58de4d	0.21178551
84	0xbb72330f	-0.0036956703
85	0x3e24f2fe	0.16108319
86	0x3ebb9ee0	0.3664465
87	0xbff859de	-1.9402425
88	0xbd90213a	-0.070375875
89	0xbdc74ced	-0.09731469
90	0xbfd434c9	-1.6578609
91	0x3f14acee	0.5807637
92	0x3e9994a8	0.29996228
93	0x3c0cc0fa	0.008590931
94	0x3d100307	0.035159137
95	0xbc62660e	-0.013818277
96	0xbed3c1f9	-0.41358927
97	0xbe30c785	-0.1726361
98	0x3d8dadf5	0.06917945
99	0x3f8add78	1.0848837
100	0xbbb56190	-0.005535312
101	0xbe3dbba1	-0.18528606
102	0xbb04e674	-0.0020278962
103	0xbe006846	-0.12539777
104	0x3c8b82a1	0.017030062
105	0xbdc4cf60	-0.09609866
106	0xbd34f7f8	-0.044181794
107	0xbfad58ac	-1.3542686
108	0xc02b2d66	-2.674646
109	0x3e741ade	0.23838374
110	0xbf774c07	-0.96600384
111	0xbe9faba9	-0.31185654
112	0xbeaaee37	-0.33384869
113	0x3b73a628	0.0037177894
114	0xbd411c1a	-0.04714594
115	0xc0324186	-2.7852492
116	0xbe7210b4	-0.23639184
117	0xbfc5b764	-1.5446591
118	0x3ea6f4c8	0.32608628
119	0x3e6f513b	0.2337083
120	0x3ee6ec96	0.45102376
121	0xbd9e5b18	-0.077322185
122	0xbf88f1f7	-1.0698842
123	0xbed02243	-0.4065114
124	0x3f2b2868	0.6685853
125	0x3e1378a9	0.14401497
126	0x3e2ccb54	0.16874439
127	0x3fad3cf7	1.353423
128	0xbeb7736b	-0.35830244
129	0x3ddbc66f	0.107312076
130	0x3fc7dbbe	1.5613935
131	0x3efa87e6	0.48931807
132	0xbe049356	-0.12946829
133	0x3e8e931a	0.27846605
134	0x3ec3a4fc	0.3821181
135	0xbec0101a	-0.37512285
136	0xbf32036b	-0.69536465
137	0xbed35908	-0.41278863
138	0x3ea42452	0.3205896
139	0x3e39ef65	0.18157728
140	0xbfdf163c	-1.742866
141	0xc00408b5	-2.0630314
142	0xbfea0557	-1.828288
143	0x3f3ae14e	0.7300004
144	0xbfebaa27	-1.8411301
145	0x3e5d772f	0.21627496
146	0xc03b4f83	-2.926728
147	0xbe257a70	-0.16159987
148	0xbf0587ac	-0.52160144
149	0xbfde9ad4	-1.7391
150	0xbdf53499	-0.11972923
151	0x3f9c0576	1.2189167
152	0x3f25aca1	0.64716536
153	0xbff2157a	-1.8912804
154	0xbffa56ed	-1.9557778
155	0xbf0a1022	-0.53930867
156	0x3f218db9	0.63106877
157	0xbfc755c0	-1.5573044
158	0xbfb1972e	-1.3874261
159	0xbf300425	-0.68756324
160	0x3ea4863a	0.32133657
161	0x3de7a80a	0.11311348
162	0x3f12fa0c	0.5741279
163	0x3f256e5f	0.6462154
164	0x3e48a497	0.19594036
165	0x3ea1bd8d	0.31589928
166	0x3f0a018a	0.539086
167	0xbfda60ed	-1.7060829
168	0xbe808032	-0.25097805
169	0x3e95e6ae	0.29277557
170	0xbfb5b2d1	-1.4195195
171	0x3efedb8c	0.49776876
172	0x3f44b3ea	0.7683703
173	0x3e4db2e1	0.20087768
174	0xbd856478	-0.065133035
175	0xbe969b22	-0.29415232
176	0x3ebefdaf	0.3730292
177	0xbe4cba35	-0.19992907
178	0x3e6a1b39	0.22861947
179	0xc00db958	-2.2144375
180	0x3d8cb9b2	0.06871356
181	0x3f1f4232	0.6221038
182	0x3f85e99f	1.046192
183	0x3db84113	0.08996787
184	0x3e3e9615	0.18611939
185	0xbf9cb843	-1.2243732
186	0x3ede4fd0	0.43420267
187	0x3da52db0	0.08065355
188	0x3eaca9c2	0.33723265
189	0xbcc514c2	-0.02405775
190	0x3de37c00	0.111076355
191	0x3f2d9976	0.6781229
192	0xbc126618	-0.008935474
193	0xbe184a6a	-0.14872137
194	0xbc8fee46	-0.017569672
195	0x3ed1ab77	0.4095113
196	0x3dabbc0a	0.08385475
197	0x3e9067da	0.28204232
198	0xbce2354e	-0.027613308
199	0x3ec7835a	0.389674

sequential_2/dense_8/MatMul f4 [7, 10]
0	0xc0cca831	-6.395531
1	0xbe9d156d	-0.3068041
2	0xbe1fbbe1	-0.15599014
3	0xbf726a9e	-0.94693935
4	0xbf75a7e7	-0.95959324
5	0xbf296288	-0.6616597
6	0xc080ace5	-4.0211053
7	0xc081cbe3	-4.0561385
8	0xc05812ed	-3.3761551
9	0xc09065bb	-4.5124183
10	0x3f6036d9	0.8758369
11	0xbf270814	-0.652467
12	0xbe174a71	-0.14774491
13	0xbe20e993	-0.15714101
14	0xbf9ddcd8	-1.2333021
15	0xbe57e0a5	-0.21081789
16	0x3ddeda30	0.1088146
17	0xbfcb476b	-1.588117
18	0xbfbe5d79	-1.4872276
19	0xbe51de73	-0.20495014
20	0x3f55beb9	0.83494145
21	0xbe7081a5	-0.23486955
22	0xbf6cbf8f	-0.92479795
23	0x3bda25df	0.0066573466
24	0xbf0f5391	-0.5598689
25	0xbf951797	-1.1647824
26	0xbeafd554	-0.34342444
27	0xbf4ce8d6	-0.8004278
28	0xbf1449aa	-0.579249
29	0x3f28dd5d	0.65962774
30	0xbf07891f	-0.52943605
31	0xbeab1056	-0.334109
32	0xbe77f536	-0.24214634
33	0xbcd86351	-0.026414545
34	0xbdd879ca	-0.105701044
35	0xbd9ead62	-0.07747914
36	0x3deb9590	0.11503136
37	0xbf63b7c9	-0.8895231
38	0xbf1f253e	-0.621662
39	0x3f33e2cb	0.70267934
40	0x3df5d43a	0.1200337
41	0x3fb23fc9	1.3925716
42	0x3f6cf803	0.92565936
43	0x3f62d5e0	0.886076
44	0x3f9c4c6a	1.221082
45	0x3f53b3c9	0.82696205
46	0xbf0ddb3a	-0.5541264
47	0xbf2d5939	-0.6771427
48	0x3fb10d0d	1.3832108
49	0x3e91c77a	0.284725
50	0x3e29cfdb	0.16583197
51	0xbf1fb96f	-0.62392324
52	0x3fe2d13a	1.7720101
53	0x3f163a19	0.586824
54	0xbf0d09bf	-0.55092996
55	0x3f69b6d6	0.9129461
56	0xbec74923	-0.38922986
57	0x3f1a81a3	0.6035406
58	0xbf2dc92e	-0.678851
59	0xbe813011	-0.25231984
60	0xbfe38888	-1.7776041
61	0x3fa1c19f	1.2637213
62	0xbfd5e886	-1.6711586
63	0x3f25b8a6	0.64734876
64	0x3f998d41	1.1996232
65	0xbf4d5655	-0.8020986
66	0x3f0406ff	0.51573175
67	0x4037f4fb	2.8743274
68	0xbef6b9f1	-0.48188737
69	0xbd5fc0c1	-0.054627184

sequential_2/lstm_4/Read_2/ReadVariableOp1 f4 [40]
0	0x3f024125	0.5088065
1	0xbd577ec0	-0.052611113
2	0x3e0ccb0b	0.1374933
3	0x3dc4667b	0.09589859
4	0xbe8798f1	-0.26483873
5	0xbd96e1ec	-0.0736731
6	0xbddd0996	-0.10792844
7	0xbeb27445	-0.34854332
8	0x3ea510c8	0.32239366
9	0x3e8ab680	0.2709236
10	0x3f800000	1.0
11	0x3f800000	1.0
12	0x3f800000	1.0
13	0x3f800000	1.0
14	0x3f800000	1.0
15	0x3f800000	1.0
16	0x3f800000	1.0
17	0x3f800000	1.0
18	0x3f800000	1.0
19	0x3f800000	1.0
20	0xbe9ce297	-0.30641624
21	0xbd8e9d78	-0.069636285
22	0x3d9bbd81	0.076045044
23	0x3dd641d1	0.10461772
24	0x3dd196ba	0.10233827
25	0xbd15f7c9	-0.03661326
26	0xbc8d77be	-0.017269012
27	0x3e62c536	0.22145543
28	0x3da31827	0.07963591
29	0xbeeff668	-0.4686768
30	0x3e905f83	0.2819787
31	0x3e3f912c	0.18707722
32	0x3e3b74d6	0.18306288
33	0x3d8212ff	0.063512795
34	0xbe9c520f	-0.30531356
35	0x3df2eb74	0.11861315
36	0x3c4671a1	0.012112052
37	0xbee347e8	-0.44390798
38	0x3f2b84c3	0.66999453
39	0xbd235af3	-0.039881658

while/MatMul_11 f4 [40, 10]
0	0xbe352bc0	-0.1769247
1	0x3d8bea7f	0.06831836
2	0x3d32f50b	0.043690722
3	0xbe330b2b	-0.17484729
4	0xbe003d23	-0.12523322
5	0x3daf516f	0.08560454
6	0xbde36157	-0.111025505
7	0x3ddbb80f	0.10728466
8	0x3d49e51e	0.04929077
9	0x3ddc4934	0.1075615
10	0xbd9524b0	-0.07282388
11	0xbdf261ae	-0.11835037
12	0x3d3607df	0.0444411
13	0xbc53c302	-0.012924911
14	0x3e0e4467	0.13893281
15	0xbba8d46f	-0.005152277
16	0x3e563738	0.20919502
17	0x3eaebd1f	0.34128663
18	0xbe2539ff	-0.16135405
19	0xbe3ae483	-0.18251233
20	0xbe6ddbe3	-0.23228411
21	0xbdfc8630	-0.12330282
22	0x3d8f546a	0.069985226
23	0xbe1f7d5a	-0.15575162
24	0x3e8da401	0.27664188
25	0x3eb81d40	0.35959816
26	0xbe05cf00	-0.13067245
27	0xbdb3249c	-0.08747217
28	0xbe29dd99	-0.16588439
29	0x3cd44253	0.025910532
30	0x3e17b328	0.14814436
31	0xbcfe53f4	-0.031045891
32	0xbddb632f	-0.10712277
33	0xbc9a85a7	-0.018862559
34	0xbe47cbd5	-0.1951135
35	0x3ecefea8	0.40428662
36	0x3bf39ca3	0.007434444
37	0x3e2287bb	0.1587209
38	0x3c5336c2	0.012891473
39	0x3d8e645d	0.069527365
40	0x3de5b917	0.11216944
41	0xbbb70d57	-0.005586307
42	0x3e9ca749	0.30596378
43	0x3e5a7a03	0.21335606
44	0xbe123cc5	-0.14280994
45	0x3e2594d5	0.16170056
46	0xbe6c9e20	-0.23107195
47	0x3e802988	0.25031686
48	0xbd86f697	-0.06590002
49	0xbcf51200	-0.02991581
50	0x3d28f6a6	0.041250847
51	0x3e914a0f	0.28376815
52	0x3dbc77ba	0.092025235
53	0x3e6cc222	0.23120931
54	0x3e0f1c01	0.13975526
55	0xbe3400a4	-0.1757837
56	0x3bb59c42	0.005542309
57	0x3de47b8f	0.111563794
58	0xbcd15770	-0.025554389
59	0x3e15f5e3	0.1464458
60	0x3cf45e49	0.029830115
61	0x3db92889	0.090409346
62	0xbc552d4c	-0.013011288
63	0x3e8758c5	0.26434913
64	0xbd65eed8	-0.056135982
65	0x3cfe4f56	0.03104369
66	0xbe530515	-0.20607407
67	0xbe2cde84	-0.16881758
68	0x3edbb3a4	0.42910492
69	0x3e59352a	0.21211687
70	0x3e4391a7	0.1909853
71	0x3d57861e	0.05261814
72	0x3e6fc25e	0.23413989
73	0x3e24472d	0.16042776
74	0x3e3f61e2	0.18689683
75	0x3dbe05e5	0.09278468
76	0x3e500fd8	0.20318544
77	0xbcb5028e	-0.022095945
78	0x3e42974d	0.19003029
79	0xbe81d86c	-0.2536043
80	0x3e6420c1	0.2227812
81	0x3d658fb0	0.056045234
82	0xbcc6cfe4	-0.024269052
83	0x3d1f1dfc	0.038846955
84	0x3e5a94ea	0.21345869
85	0x3c54b7ae	0.012983246
86	0xbd673bc2	-0.056453474
87	0xbe1e17fe	-0.1543884
88	0xbec2d699	-0.3805435
89	0xbdee70f8	-0.11642641
90	0xbd959346	-0.07303481
91	0x3c98e130	0.018662065
92	0x3de73519	0.112894244
93	0xbd51d4bd	-0.051228274
94	0xbd1d2cc4	-0.03837277
95	0x3c4c2e4a	0.012462208
96	0xbebfc2c9	-0.37453297
97	0x3cdeb020	0.027183592
98	0xbdf97133	-0.12179794
99	0xbe9c0873	-0.30475196
100	0x3e04d0e8	0.12970316
101	0xbe797a16	-0.24362978
102	0xbcd5c2af	-0.026093809
103	0xbe1c5768	-0.15267718
104	0xbb777ec4	-0.0037764767
105	0xbd65b333	-0.0560791
106	0x3c8bfaa2	0.017087284
107	0x3d8d727d	0.069066025
108	0x3da0bc90	0.078484654
109	0x3de35a14	0.111011654
110	0xbe96073d	-0.29302397
111	0xbda31db4	-0.0796465
112	0x3ba10f68	0.0049151666
113	0x3de34996	0.1109802
114	0x3cbe501c	0.023231559
115	0x3d214b0d	0.039378215
116	0xbd646588	-0.05576089
117	0x3e30fe2c	0.17284459
118	0x3e08f7ff	0.13375853
119	0xbe2a1e38	-0.1661309
120	0x3d987c7a	0.07445617
121	0x3e2cd05a	0.16876355
122	0x3cfd24c8	0.030901328
123	0xbdc3c2be	-0.095586285
124	0xbae9b848	-0.0017831409
125	0x3e2545a0	0.16139841
126	0x3db2dde6	0.0873373
127	0x3e097b9b	0.13426058
128	0xbd4d3496	-0.050098978
129	0x3e2154c5	0.15754993
130	0x3c6ecb0f	0.01457478
131	0x3d0d99d7	0.03457054
132	0x3dabd3c4	0.083900005
133	0x3e3ca137	0.18420874
134	0x3c99c0ce	0.018768694
135	0x3de09b9a	0.10967179
136	0x3ea92a43	0.33040056
137	0x3e636230	0.22205424
138	0x3d56f67b	0.052481156
139	0xbe07fea8	-0.13280737
140	0xbd60ebd4	-0.054912403
141	0xbe21e2d8	-0.1580919
142	0xbd4acff9	-0.049514744
143	0xbc2421d7	-0.010017834
144	0x3c7878a0	0.015165478
145	0x3e2c1039	0.16803063
146	0x3da7cb20	0.0819304
147	0x3c8d42eb	0.017243823
148	0xbdcf500f	-0.10122692
149	0x3ec9af01	0.3939133
150	0xbd65359c	-0.05595933
151	0xbc63dd17	-0.013907692
152	0x3c846d00	0.016165257
153	0x3e040816	0.1289371
154	0x3e0f7de1	0.14012863
155	0x3e04dd84	0.12975127
156	0xbded3098	-0.11581534
157	0x3dc57722	0.096418634
158	0x3d0c94aa	0.034321465
159	0x3dc7191a	0.097215846
160	0x3da8834e	0.082281694
161	0x3e133d92	0.14378956
162	0xbd578f0d	-0.05262666
163	0x3e550756	0.2080358
164	0x3e76e9af	0.2411258
165	0x3c1f3e02	0.009719374
166	0xbe13793b	-0.14401715
167	0xbdaff15f	-0.0859096
168	0xbdb1163d	-0.0864682
169	0x3dcd880e	0.10035716
170	0x3e01f327	0.12690412
171	0x3df5cb78	0.12001699
172	0xbe0f554a	-0.13997379
173	0x3d0faaf8	0.035075158
174	0xbf05df36	-0.5229372
175	0xbd834941	-0.064104564
176	0x3dbe9d54	0.09307352
177	0xbd8bb144	-0.0682092
178	0xbd85c563	-0.06531789
179	0x3cd28c78	0.025701746
180	0xbe2eb87a	-0.1706256
181	0xbe6e5efc	-0.23278421
182	0xbe22291f	-0.15835999
183	0x3dce5291	0.10074342
184	0xbd0c69b2	-0.034280486
185	0x3e4cbed4	0.1999467
186	0x3c4fca94	0.012682576
187	0xbec9d36f	-0.39419124
188	0xbc3afc54	-0.011412699
189	0xbe157955	-0.14597066
190	0x3c211402	0.00983143
191	0xbd6e936d	-0.058246065
192	0x3bce4804	0.006295206
193	0xbe6908ad	-0.22757216
194	0xbcf1e28d	-0.029526973
195	0x3e1686eb	0.14699905
196	0xbd7bccbc	-0.061474547
197	0xbd849ffd	-0.06475828
198	0x3eb9b1b1	0.3626838
199	0xbe72b3e1	-0.23701431
200	0x3e28c761	0.16482307
201	0x3e3639f7	0.1779555
202	0xbe2c6fc6	-0.16839513
203	0x3cf1af6c	0.029502593
204	0x3c94016e	0.018067088
205	0xbe61e3aa	-0.22059503
206	0xbe4fd10d	-0.2029459
207	0xbdcbfbd3	-0.09960141
208	0xbe4d5e8b	-0.20055597
209	0xbe14e21c	-0.14539379
210	0x3d0b4262	0.033998854
211	0xbe2e6d01	-0.17033769
212	0xbd687793	-0.05675466
213	0x3e9fcf29	0.31212738
214	0xbdb7dd8f	-0.08977806
215	0x3e9a771c	0.30168998
216	0xbe5e9da3	-0.21739821
217	0x3d62e0b0	0.05539006
218	0xbe798cea	-0.2437016
219	0xbd72e8a9	-0.059303913
220	0x3ef12d4a	0.47104865
221	0xbd7b6a41	-0.06138063
222	0x3de391af	0.11111771
223	0xbd8898b9	-0.066697545
224	0xbd0fe2cb	-0.035128396
225	0x3e2191cd	0.15778275
226	0xbc1b77f8	-0.009489052
227	0xbddccaba	-0.107808545
228	0x3c5b2510	0.013375536
229	0xbaf67e20	-0.0018805899
230	0xbccad571	-0.02475998
231	0x3d98e45c	0.07465431
232	0x3eabcb39	0.33553484
233	0x3d897f02	0.06713678
234	0x3e254d1b	0.16142695
235	0xbe0e3d45	-0.1389056
236	0xbd07097e	-0.032968037
237	0x3d1f844c	0.038944528
238	0xbc3c8096	-0.011505267
239	0x3ae9aabe	0.0017827374
240	0x3e87ad3f	0.26499364
241	0x3d916ef9	0.071012445
242	0xbd2c681f	-0.042091485
243	0x3d81e952	0.063433304
244	0xbe6229e4	-0.22086293
245	0xbcf95173	-0.030434346
246	0x3d8febe2	0.07027413
247	0x3da11004	0.07864383
248	0xbd843846	-0.06456046
249	0xbdb7ac52	-0.08968414
250	0x3cdbabb2	0.02681527
251	0xbdc058e9	-0.09391958
252	0xbd182fb3	-0.037154865
253	0x3d9dfaa0	0.077138186
254	0xbdac4ddb	-0.08413287
255	0xbd8e5a1b	-0.0695078

while/MatMul f4 [40, 42]
0	0xbdf59efc	-0.119932145
1	0xbe554852	-0.2082837
2	0xbf4dc78b	-0.80382603
3	0x3e85bfe0	0.26122952
4	0xbe2baaf9	-0.1676444
5	0x3d9034f5	0.07041351
6	0x3f10c626	0.5655235
7	0xbe49b84a	-0.19699207
8	0x3e7edc28	0.2488867
9	0xbef1ff55	-0.47265115
10	0xbdc48feb	-0.09597763
11	0x3e0d01bd	0.13770194
12	0x3f062ce9	0.5241228
13	0xbf148bdc	-0.5802591
14	0x3e3c583d	0.18393035
15	0xbf51f0d4	-0.820081
16	0x3e9193e0	0.28433132
17	0xbfbeef6b	-1.4916815
18	0xbdc07e56	-0.09399097
19	0xbe942312	-0.28933007
20	0x3de8f30a	0.11374481
21	0xbf060cb5	-0.5236314
22	0x3e71e845	0.2362376
23	0xbf72878c	-0.9473808
24	0x3ba9023a	0.005157736
25	0xbfb1bd6b	-1.3885931
26	0xbe9dfcaf	-0.30856845
27	0x3e88311f	0.26599976
28	0x3f13e6c6	0.5777401
29	0xbe937c0c	-0.28805578
30	0x3e819f7b	0.25316986
31	0xbeefeae5	-0.46858898
32	0x3e480ea3	0.19536833
33	0xbeed68c3	-0.4636899
34	0x3e417126	0.18890819
35	0x3f229118	0.63502645
36	0x3ec7bb23	0.3900996
37	0x3ecf9ce3	0.40549383
38	0x3e859a2f	0.26094195
39	0x3eab1f7f	0.33422467
40	0x3e4ab8e3	0.19797091
41	0xbe1b8be5	-0.15190084
42	0xbe4fc0c1	-0.20288374
43	0xbe71edf0	-0.23625922
44	0x3db736f0	0.08946025
45	0x3d70db02	0.058802612
46	0x3e096b31	0.13419797
47	0x3f20eeec	0.62864566
48	0x3f7247be	0.9464072
49	0x3e9a1a24	0.3009807
50	0x3f5f4025	0.8720725
51	0x3e1cfa08	0.15329754
52	0x3ec26e0e	0.3797459
53	0xbdc4427b	-0.09582993
54	0x3f5e9be5	0.86956626
55	0x3e25ac3a	0.1617898
56	0x3f8827a1	1.0637094
57	0x3ee0bc67	0.4389374
58	0x3fb68a3d	1.4260937
59	0x3e8c0d4d	0.27353898
60	0x3e8f5436	0.27993935
61	0x3ea6c11f	0.32569215
62	0x3f6feda8	0.9372201
63	0x3e96bd46	0.2944128
64	0x3f9d683a	1.2297432
65	0xbc834610	-0.01602462
66	0x3fc2652b	1.5187124
67	0xbdc9583a	-0.09831281
68	0x3f15025c	0.58206725
69	0x3e69b51e	0.22822997
70	0x3f1f8ddd	0.6232584
71	0xbde12f1c	-0.109953135
72	0x3facf1ff	1.3511351
73	0xbd700bc9	-0.05860499
74	0x3fd0ab39	1.6302253
75	0x3dfa8968	0.122332394
76	0x3f6ad4bb	0.9173085
77	0x3d661196	0.056169115
78	0x3e2e64b8	0.17030609
79	0x3ec9c6e0	0.39409542
80	0x3f0701a9	0.5273691
81	0x3dea3f9d	0.114379145
82	0x3fa78b78	1.3089437
83	0xbcd81fbd	-0.026382321
84	0xbd8676f6	-0.06565659
85	0xbe409609	-0.18807234
86	0x3db5e801	0.08882142
87	0x3ecfe600	0.40605164
88	0xbe4aa173	-0.1978815
89	0x3ead4c86	0.33847445
90	0xbe0b96df	-0.13631772
91	0x3d6b2d14	0.057416037
92	0x3cc44929	0.023960667
93	0x3dc434ed	0.09580407
94	0x3efd29e7	0.4944603
95	0xbe77f7b8	-0.24215591
96	0x401f4981	2.4888613
97	0xbe2248a1	-0.15848018
98	0x3fe60bb9	1.7972327
99	0xbd245848	-0.040123254
100	0x3fc9b46d	1.5758187
101	0xbe9af955	-0.3026835
102	0x3f183995	0.59462863
103	0xbead8aaa	-0.33894855
104	0x3f99a4de	1.2003438
105	0xbedb9d4e	-0.4289345
106	0xbe3a52bd	-0.18195625
107	0xbea57ac2	-0.3232022
108	0xbeeb8879	-0.46002558
109	0xbd5ba401	-0.053623203
110	0x3e614c3d	0.22001739
111	0xbd91e4e2	-0.07123734
112	0x3f124d0c	0.57148814
113	0xbe70e833	-0.23526077
114	0x3f1c9b26	0.6117424
115	0xbe36cdd9	-0.17851962
116	0x3d439e17	0.047758188
117	0xbf0efcab	-0.5585429
118	0x3f205079	0.6262279
119	0xbe31e1fb	-0.17371361
120	0x3f3b0682	0.73056805
121	0xbe1679c8	-0.14694893
122	0x3f2d6593	0.67733115
123	0xbf09a582	-0.5376817
124	0x3f2890d4	0.6584599
125	0xbeb40a59	-0.35164145
126	0xbe3a98d2	-0.18222359
127	0xbe6efa90	-0.2333777
128	0x3e7f72c6	0.24946126
129	0xbe984640	-0.29741096
130	0xbde610c7	-0.11233669
131	0x3e9521b0	0.29127264
132	0xbc49f129	-0.0123255635
133	0x3ef884d1	0.4853883
134	0xbbf04816	-0.007332812
135	0x3e31df28	0.17370284
136	0xbe2a111f	-0.16608094
137	0x3e13d4e9	0.14436688
138	0x3f026321	0.5093251
139	0x3d76e04c	0.0602725
140	0x3f12ce09	0.57345635
141	0x3ea70387	0.3261988
142	0x3e43fe50	0.19139981
143	0x3cb7675b	0.02238815
144	0xbec68ec2	-0.3878079
145	0x3e2c90e9	0.16852154
146	0x3e0edb94	0.1395095
147	0xbec4f74f	-0.3846993
148	0x3d321b6a	0.043483175
149	0xbecb22fd	-0.3967513
150	0x3eac55d2	0.33659226
151	0xbf12ae42	-0.57297146
152	0xbf0a7614	-0.5408642
153	0x3da57ecc	0.08080825
154	0xbed4b7e4	-0.41546547
155	0xbeaf06fa	-0.3418501
156	0x3d425a68	0.0474495
157	0xbe14ed3b	-0.14543621
158	0xbd7840e1	-0.06060875
159	0xbf02e25f	-0.51126665
160	0xbf824f16	-1.0180385
161	0x3e8e5c59	0.2780483
162	0xbf290687	-0.66025585
163	0x3e17e0df	0.14831875
164	0xbeedda64	-0.4645568
165	0x3d40b24d	0.04704504
166	0xbefd07b7	-0.49419948
167	0xbdf79a77	-0.12090009
168	0xbe59364c	-0.21212119
169	0x3e76ed08	0.24113858
170	0x3ef736e4	0.48284066
171	0x3f37c282	0.7178117
172	0x3f80ac24	1.0052533
173	0x3e7f51da	0.24933568
174	0x3f217c39	0.63080174
175	0x3cb900ce	0.022583392
176	0xbde26f6b	-0.110564075
177	0xbde741a4	-0.11291817
178	0x3f6f7c4e	0.9354905
179	0xbe1a8fe5	-0.15093954
180	0x3c838b47	0.016057624
181	0x3ea8c5f1	0.32963517
182	0xbeee6b6f	-0.4656634
183	0xbdd77629	-0.10520584
184	0xbe7a74c9	-0.24458613
185	0x3ee6f410	0.4510808
186	0x3f6b72c8	0.9197202
187	0xbdb411a0	-0.08792424
188	0x3eda30b4	0.42615283
189	0xbd3e3d7d	-0.04644536
190	0x3e86a8c5	0.26300636
191	0x3e4e4a1d	0.2014546
192	0xbc010cd1	-0.007876591
193	0xbc471702	-0.012151482
194	0x3f557919	0.83387905
195	0xbee42e71	-0.44566682
196	0x3e8f1f2a	0.27953464
197	0xbe3ec934	-0.1863144
198	0x3f0260f2	0.50929177
199	0xbeb3ab98	-0.35091853
200	0x3e9197e2	0.2843619
201	0x3d54a93a	0.0519192
202	0x3d7ca1ca	0.06167773
203	0xbf140a71	-0.5782843
204	0xbf25cee6	-0.64768827
205	0xbf26475e	-0.6495265
206	0xbf2b93e2	-0.67022526
207	0xbea0edaa	-0.31431323
208	0xbf2ac807	-0.6671147
209	0xbe89c1cf	-0.26905677
210	0x3e8011ae	0.2501349
211	0xbe146677	-0.14492212
212	0x3ef23121	0.47303107
213	0xbf80f499	-1.0074645
214	0x3db0ce7d	0.086331345
215	0xbf6e5543	-0.9309885
216	0xbe8679c2	-0.2626477
217	0xbf767056	-0.9626516
218	0xbef92bb8	-0.48666167
219	0xbf9eaf99	-1.2397338
220	0x3e1fe3eb	0.15614288
221	0xbf0944c9	-0.5362058
222	0x3e01e97e	0.12686726
223	0xbf1d0af2	-0.61344826
224	0x3e8dd550	0.27701807
225	0xbd9c4a03	-0.07631304
226	0x3dd63141	0.10458613
227	0x3dbce125	0.092226304
228	0x3c4d13ce	0.012516929
229	0xbdffbcb6	-0.12487166
230	0x3e636b10	0.2220881
231	0xbe49a0ca	-0.19690242
232	0x3eb4be48	0.35301423
233	0x3dbd4e79	0.09243483
234	0xbe4f3f4d	-0.20238991
235	0x3ef03774	0.46917307
236	0xbe2a694e	-0.16641733
237	0xbec9aa57	-0.3938777
238	0x3baefbe0	0.0053400844
239	0xbcd65f9c	-0.026168637
240	0x3d250cd8	0.040295452
241	0x3e2b65ae	0.16738006
242	0x3cb07bbe	0.02154338
243	0xbdbe31f1	-0.09286869
244	0x3d10dc8a	0.035366572
245	0x3d142f97	0.036178198
246	0xbdda46dd	-0.10658047
247	0x3e302ef8	0.17205417
248	0x3e74e670	0.2391603
249	0x3e132707	0.14370357
250	0xbe0913d2	-0.13386467
251	0x3f33df57	0.70262665
252	0xbe1c30b8	-0.1525296
253	0x3c35f9a0	0.0111068785
254	0x3e078891	0.1323569
255	0x3f845cda	1.0340836

sequential_2/lstm_5/Read_2/ReadVariableOp1 f4 [40]
0	0x3ecc5aab	0.39912924
1	0x3e8371dd	0.25672808
2	0x3f1f46e1	0.6221753
3	0x3ed70a81	0.420002
4	0x3e5c9e03	0.21544652
5	0x3f27046a	0.6524111
6	0x3f3997cb	0.7249724
7	0x3dd1dbeb	0.10247024
8	0x3f354495	0.7080777
9	0x3f7cedf7	0.98800606
10	0x3f800000	1.0
11	0x3f800000	1.0
12	0x3f800000	1.0
13	0x3f800000	1.0
14	0x3f800000	1.0
15	0x3f800000	1.0
16	0x3f800000	1.0
17	0x3f800000	1.0
18	0x3f800000	1.0
19	0x3f800000	1.0
20	0x3e9ae231	0.30250695
21	0xbceabe4f	-0.0286552
22	0xbea3c790	-0.31988192
23	0x3c9b539b	0.018960765
24	0xbe7c2133	-0.2462204
25	0xbe3ff1d5	-0.18744595
26	0xbe4097bd	-0.18807884
27	0xbdbde762	-0.092726484
28	0xbe0724b2	-0.13197592
29	0x3e99f251	0.30067685
30	0x3f10d757	0.5657858
31	0x3ef9391d	0.48676386
32	0x3e95622c	0.29176462
33	0x3f097b95	0.53704196
34	0x3e7c0e7d	0.24614902
35	0x3ec0f17c	0.37684238
36	0x3eff45f9	0.49858072
37	0x3da21ce4	0.07915667
38	0x3f0868ef	0.53285116
39	0x3f3536a5	0.70786506

while/MatMul_14 f4 [40, 10]
0	0x3d6754c0	0.05647731
1	0x3e1fd81c	0.15609783
2	0xbd734756	-0.059394203
3	0x3e41c0fe	0.18921277
4	0xbd25741b	-0.04039393
5	0xbc00cd51	-0.007861451
6	0x3d559c06	0.05215075
7	0xbc676194	-0.0141223855
8	0x3e2059a5	0.15659197
9	0xbd38bc31	-0.04510135
10	0xbe0aa5c3	-0.13539796
11	0x3e1766d8	0.14785326
12	0x3d1f9755	0.03896268
13	0xbd422130	-0.04739493
14	0x3e36a4c6	0.17836294
15	0x3e5f4a28	0.21805632
16	0xbd7b10cb	-0.061295312
17	0xbddaa06a	-0.10675128
18	0xbd4a6cee	-0.04942029
19	0x3d93829b	0.072026454
20	0xbe0fdaaf	-0.14048265
21	0x3d8c32bf	0.068456165
22	0xbdc70b8a	-0.09718998
23	0x3db3746f	0.08762442
24	0x3d791691	0.060812537
25	0x3dd2a3c9	0.10285146
26	0xbce4b085	-0.027916202
27	0xbd55153b	-0.0520222
28	0xbdbee8a5	-0.09321717
29	0x3dae33a9	0.08505947
30	0x3de3d73f	0.11125039
31	0x3dd85ce2	0.10564591
32	0x3cffb1b8	0.031212673
33	0x3de61a51	0.11235488
34	0xbe8dc1d1	-0.27686933
35	0xbdee2742	-0.116285816
36	0xbed64086	-0.41846102
37	0xbdffae6d	-0.12484441
38	0xbd8039c8	-0.06261021
39	0xbd3dda36	-0.04635068
40	0x3db523f6	0.0884475
41	0x3d5297de	0.051414363
42	0x3e216aa5	0.15763338
43	0x3e74877c	0.23879808
44	0x3e99f043	0.30066118
45	0xbe2acdbc	-0.16680044
46	0xbce7189e	-0.02820998
47	0x3d4c8d3e	0.049939387
48	0xbd05bd9e	-0.032651536
49	0x3d486938	0.04892847
50	0x3dad8d10	0.08474171
51	0x3e1abe4a	0.15111652
52	0x3e40ecb6	0.18840298
53	0x3e108e1a	0.14116707
54	0xbe261897	-0.16220318
55	0xbe07475d	-0.13210817
56	0xbd26d4a8	-0.04073015
57	0x3db2b68c	0.08726224
58	0xbdbd166d	-0.09232793
59	0xbd252e50	-0.04032737
60	0xbe84ef31	-0.2596374
61	0x3d22112b	0.039567154
62	0x3e2a594a	0.16635624
63	0xbe674ad1	-0.22587134
64	0x3c97ce91	0.018531116
65	0xbe348885	-0.17630203
66	0xbdca9e2c	-0.0989345
67	0x3e0db79a	0.1383957
68	0xbe3dbca0	-0.18528986
69	0x3e5b9a08	0.21445477
70	0xbdf7796e	-0.12083708
71	0x3e049b62	0.12949899
72	0xbd22ea42	-0.039774187
73	0xbdb2760e	-0.087139234
74	0xbd8824e8	-0.06647664
75	0x3d408eaa	0.047011055
76	0xbbbede6d	-0.005824855
77	0x3e937668	0.28801274
78	0x3decfd83	0.11571791
79	0xbd9cc06d	-0.0765389
80	0x3cac61d0	0.021042734
81	0xbe8a7549	-0.27042606
82	0x3d895ca1	0.06707121
83	0x3dc7be37	0.097530775
84	0x3c4de0b7	0.012565783
85	0xbe58028e	-0.21094725
86	0x3e8b7e8c	0.27244985
87	0xbda3ff27	-0.08007651
88	0x3c578985	0.013155346
89	0xbe0e36db	-0.13888113
90	0x3c4e7d80	0.012603164
91	0xbe6efda2	-0.2333894
92	0xbc072fc0	-0.008251131
93	0x3de8adc2	0.11361267
94	0xbdae93c8	-0.08524281
95	0x3e2e9589	0.1704923
96	0x3bd457a8	0.006480176
97	0xbb935f5b	-0.0044974512
98	0x3dbf0fea	0.09329207
99	0xbd99c952	-0.07509102
100	0xb9f9a0ea	-0.0004761287
101	0x3e961a5c	0.29316986
102	0xbe1b3139	-0.15155496
103	0xbe2e0022	-0.16992238
104	0x3dd0bc98	0.101922214
105	0xbd9e6535	-0.077341475
106	0x3e5e9bbe	0.21739098
107	0x3c42a1b6	0.011879375
108	0x3e00435b	0.12525694
109	0xbdda4a7b	-0.10658737
110	0xbdb67ba6	-0.08910303
111	0xbd8adc9f	-0.067803614
112	0xbe24e142	-0.16101554
113	0xbe9d4af0	-0.30721235
114	0x3d2b4892	0.041817255
115	0x3c923735	0.01784859
116	0xbd99c21a	-0.07507725
117	0xbdf49ce4	-0.11943987
118	0xbdaa205c	-0.08306953
119	0xbc8704cd	-0.016481781
120	0x3d485982	0.048913486
121	0xbe67a665	-0.22622068
122	0x3cdd59d1	0.027020367
123	0xbde29ead	-0.11065421
124	0xbe35d250	-0.17756009
125	0x3e98edba	0.2986887
126	0xbd8b54b2	-0.06803264
127	0x3e27c99c	0.16385502
128	0x3e844560	0.2583418
129	0xbdd064ef	-0.101755016
130	0x3d9b0547	0.07569366
131	0xbe219f69	-0.15783466
132	0xbd961cf7	-0.07329743
133	0xbced38ef	-0.028957812
134	0xbc4110d0	-0.011783794
135	0xbe1532b6	-0.14570126
136	0xbdaf8612	-0.08570494
137	0xbde921f3	-0.113834284
138	0x3e5b3b1e	0.2140927
139	0x3ea952ab	0.33070883
140	0x3e1aa995	0.15103753
141	0x3e590bbb	0.21195881
142	0x3e408043	0.18798928
143	0xbdec151b	-0.11527463
144	0xbe2fe8fc	-0.1717872
145	0x3e49452b	0.19655292
146	0x3dab823e	0.08374451
147	0xbdac6c0b	-0.08419045
148	0xbe8fc79a	-0.2808197
149	0x3ebe8014	0.3720709
150	0xbe0b3482	-0.13594249
151	0x3e916e8a	0.28404647
152	0xbc932864	-0.017963596
153	0x3db069d7	0.08613937
154	0xbdcd4241	-0.100224026
155	0xbccdf791	-0.025142463
156	0x3b5f2da2	0.00340543
157	0x3e9edc41	0.31027415
158	0x3bf913dc	0.0076012444
159	0xbb956dda	-0.0045602145
160	0xbd845e58	-0.06463307
161	0xbe0cca87	-0.13749133
162	0x3d3f6cff	0.046734806
163	0x3e1631c2	0.14667419
164	0xbef72c2b	-0.48275885
165	0x3d96f4d6	0.073709175
166	0x3e2141c6	0.15747747
167	0x3d871403	0.06595614
168	0xbe703965	-0.23459394
169	0x3e7fc0c7	0.24975882
170	0x3e35d01b	0.17755167
171	0xbd828026	-0.063720986
172	0xbe18fb98	-0.14939725
173	0xbd75546e	-0.05989497
174	0xbda1d87a	-0.07902618
175	0x3e8c03b0	0.27346563
176	0x3e3d5ff5	0.18493636
177	0xbc670e28	-0.014102496
178	0xbe988317	-0.29787514
179	0x3e21607e	0.15759465
180	0xbdff8eb0	-0.12478387
181	0x3e18bada	0.14915028
182	0xbe8f4f87	-0.27990362
183	0x3e492055	0.1964124
184	0x3e4c8724	0.19973427
185	0x3ea0da0a	0.3141635
186	0xbd6cd54f	-0.057820614
187	0x3e03510e	0.12823889
188	0xbd07ce95	-0.033155996
189	0x3d4c2c20	0.04984677
190	0xbe546ff8	-0.20745838
191	0xbe20c273	-0.15699176
192	0xbe58ce27	-0.21172391
193	0x3d2da6dc	0.042395458
194	0xbe13782f	-0.14401315
195	0xbea447b9	-0.3208597
196	0x3e5cba07	0.21555339
197	0xbd8026eb	-0.06257423
198	0xbda8ded5	-0.08245627
199	0xbe07ab59	-0.13248958
200	0x3e218b60	0.15775824
201	0xbd62a06c	-0.05532877
202	0xbd1e3398	-0.038623422
203	0x3c9fca9b	0.01950579
204	0xbe3155d7	-0.17317902
205	0xbc102a0f	-0.00879909
206	0xbdee875b	-0.11646911
207	0xbe96cff8	-0.29455543
208	0x3dbe653d	0.092966534
209	0x3dc56ac1	0.09639502
210	0x3e5355cd	0.20638199
211	0x3d1bcc0d	0.038036395
212	0x3d4a50af	0.049393352
213	0x3e73797c	0.23776811
214	0x3d072b9b	0.03300057
215	0xbda89fa3	-0.08233573
216	0xbc61922a	-0.013767758
217	0x3e724eef	0.23662923
218	0x3d1d6712	0.038428374
219	0x3d614732	0.054999538
220	0x3ea90094	0.33008254
221	0x3e17128a	0.14753166
222	0x3e5b638c	0.21424693
223	0x3d501f8e	0.050811343
224	0xbd8a4e08	-0.067531645
225	0xbc754973	-0.014971125
226	0xbdf2ea38	-0.1186108
227	0x3d9a662b	0.07539018
228	0x3d83895a	0.06422682
229	0xbe936f24	-0.2879573
230	0xbe4fd11c	-0.20294613
231	0x3e7cf2fa	0.24702063
232	0x3bc30aa3	0.0059521957
233	0x3c359080	0.011081815
234	0xbdbbc4e3	-0.091684125
235	0x3d2e1e62	0.042509444
236	0x3e58d7ef	0.21176122
237	0xbe93cf65	-0.28869167
238	0xb852fc00	-5.0302595e-05
239	0xbe9a5d3c	-0.30149257
240	0xbe2b2c06	-0.16716012
241	0xbe6fa36a	-0.23402181
242	0x3d5d00fd	0.05395602
243	0x3e2aef0e	0.16692755
244	0x3e229262	0.15876153
245	0x3dacedb2	0.08443774
246	0xbe4030c0	-0.18768597
247	0xbe17a346	-0.14808378
248	0xbeddfd0b	-0.4335712
249	0xbe8e1c01	-0.2775574
250	0xbddcc9c1	-0.10780669
251	0xbdcb5f6e	-0.09930311
252	0x3dded739	0.10880894
253	0x3c8a8a94	0.016911782
254	0xbea940a5	-0.33057132
255	0x3db0b01f	0.086273424

while/MatMul2 f4 [40, 10]
0	0xc026a2c0	-2.6036835
1	0x3f511b0d	0.816819
2	0xbdee18b3	-0.11625805
3	0xc01d694b	-2.4595516
4	0x3ece3e9c	0.40282142
5	0x3fb4f8c8	1.4138422
6	0xbf56d9e9	-0.83926255
7	0x3fa88e40	1.3168411
8	0x3f61dc81	0.8822709
9	0x3fb28a09	1.3948375
10	0xc0024508	-2.0354633
11	0x3f375657	0.7161612
12	0xbb0fd351	-0.0021946023
13	0xc02b2169	-2.6739142
14	0xbec20e2c	-0.37901437
15	0x3e75bbb3	0.23997383
16	0xb9bb77f1	-0.00035756783
17	0xbdcb832b	-0.09937128
18	0x3cb09854	0.02155701
19	0x403562ed	2.834163
20	0xc00c945d	-2.1965554
21	0xc01d72b9	-2.460127
22	0xbfdfe6ef	-1.749235
23	0xbfe2c5a1	-1.7716562
24	0xbf180938	-0.59389067
25	0xc01fdbf1	-2.4977992
26	0xbdd24f5d	-0.102690436
27	0x3e9d2a04	0.30696118
28	0x3e75c86c	0.24002236
29	0xba5ddca7	-0.0008463361
30	0x3eb6f73c	0.357355
31	0xbf8edb72	-1.1160719
32	0xbfa14739	-1.259986
33	0x3f29e2f8	0.6636195
34	0x3e43556a	0.19075552
35	0x40155342	2.3332067
36	0x3fe74b25	1.8069807
37	0xbf8534be	-1.0406721
38	0xbe29a8b3	-0.1656826
39	0x3f084547	0.5323071
40	0xc03c1373	-2.938687
41	0x3ee2e479	0.44314936
42	0x3ee80b0e	0.45320934
43	0xc011a9df	-2.275993
44	0xbeafc38c	-0.34328878
45	0xc008c3ab	-2.1369426
46	0xbe015847	-0.12631331
47	0x3de67633	0.112530135
48	0xbfa85ce2	-1.3153346
49	0xbcbac71c	-0.02280002
50	0x3c7ec470	0.015549764
51	0xbf8b30ef	-1.0874308
52	0xbff40e60	-1.9066887
53	0xbf129bdb	-0.57269067
54	0x3f4483e6	0.7676376
55	0x3f7f59bf	0.99746317
56	0x3facddab	1.3505148
57	0xbf50b04a	-0.81518996
58	0xbf411002	-0.7541505
59	0x3f16f72c	0.58970904
60	0xbfbe89b4	-1.4885774
61	0x3d795d5d	0.060880054
62	0xbf1294d7	-0.5725836
63	0xbfd7d5c5	-1.6862112
64	0x3e65c2de	0.22437617
65	0xc0669f02	-3.603455
66	0x3f1ed802	0.6204835
67	0xbfbca42c	-1.4737601
68	0xbfdf60d2	-1.7451422
69	0x3e3e945d	0.18611284
70	0xbfa078fb	-1.253692
71	0xbe4511c2	-0.19245055
72	0xbe693311	-0.22773387
73	0x3f42077c	0.7579267
74	0xbfe96f2d	-1.8237053
75	0x3fa4dbd0	1.2879581
76	0x3e6a8941	0.2290392
77	0xbea0af00	-0.31383514
78	0xbf2f0aad	-0.68375665
79	0x402687c7	2.6020372
80	0xbec889ea	-0.3916772
81	0xbec71840	-0.3888569
82	0xbc7a59f9	-0.01528024
83	0xbf865b40	-1.0496597
84	0xbf3c4e0b	-0.73556584
85	0x4003a719	2.0570738
86	0x3f18346a	0.5945498
87	0x3e42dd1a	0.19029656
88	0xbf302534	-0.6880677
89	0x4013f684	2.3119211
90	0xbf968dfe	-1.1762083
91	0xbed86bf0	-0.4226985
92	0xbec1c5ac	-0.37846124
93	0xc01885c6	-2.383165
94	0x3f282372	0.65679085
95	0x400b5f20	2.177681
96	0x3f8d99ea	1.1062596
97	0x3f917629	1.1364185
98	0x3f776a03	0.96646136
99	0x3f8998b8	1.0749731
100	0x3d24df78	0.04025218
101	0xbe49cdf2	-0.19707468
102	0x3e70d63c	0.23519224
103	0x3e99b880	0.30023575
104	0xbeaa4d39	-0.3326204
105	0x3e19fbca	0.15037456
106	0x3e51475c	0.20437378
107	0x3eaffcfe	0.34372705
108	0x3e4f3414	0.2023471
109	0x3d82b700	0.06382561
110	0xbd11d8b0	-0.03560704
111	0x3d8a4c6c	0.067528576
112	0xbeb0226a	-0.34401256
113	0xbd91d2fc	-0.0712032
114	0x3e1a363e	0.15059754
115	0x3e5aa2d0	0.2135117
116	0x3dc86aa4	0.09785965
117	0xbea91cef	-0.33029887
118	0xbc98fa30	-0.018673986
119	0x3e7e06ec	0.24807328
120	0x3dd4e844	0.10395864
121	0x3db86f30	0.09005582
122	0xbe175985	-0.14780243
123	0x3e52647c	0.20546144
124	0x3e7a73c0	0.24458218
125	0x3e5b7270	0.21430373
126	0x3e21891c	0.1577496
127	0x3e38aa5c	0.18033737
128	0x3e29afe0	0.16570997
129	0xbdfbf0e4	-0.123018056
130	0x3ea76b72	0.32699162
131	0xbcd3a920	-0.025837481
132	0x3e088504	0.13331991
133	0x3e24f24c	0.16108054
134	0x3e112b6c	0.1417672
135	0x3e16f4c2	0.14741805
136	0xbe24b2af	-0.16083787
137	0x3e982bfc	0.29721057
138	0xbe1eeec8	-0.15520775
139	0x3d81d738	0.06339878
140	0xbe9c3d0c	-0.30515325
141	0xbd220c00	-0.039562225
142	0xbe633e0b	-0.22191636
143	0xbe567ebb	-0.20946781
144	0xbe425b53	-0.1898015
145	0xbd55ba48	-0.052179605
146	0x3de1ea58	0.11031026
147	0xbe7eef96	-0.24896082
148	0x3c97c370	0.018525809
149	0x3dc3fc24	0.095695764
150	0xbcdf3430	-0.027246565
151	0x3ea02f5c	0.31286132
152	0xbd59bcb0	-0.053158462
153	0xbe00a807	-0.12564097
154	0x3d046f00	0.03233242
155	0xbe77c464	-0.24196011
156	0x3e98e888	0.29864907
157	0xbdf0aa16	-0.11751191
158	0xbea09420	-0.3136301
159	0xbe5c3385	-0.21504028
160	0x3e4478b8	0.19186676
161	0x3e9f425e	0.31105322
162	0xbd0071c8	-0.03135851
163	0xbe28dfaf	-0.16491579
164	0xbe83722c	-0.25673044
165	0x3e30e9ec	0.17276734
166	0x3e1ba85c	0.15200943
167	0x3ea14e2e	0.3150496
168	0xbe95de63	-0.2927123
169	0xbc822cd0	-0.015890509
170	0xbe3d5a15	-0.18491395
171	0xbe38e0a8	-0.1805445
172	0xbe596efb	-0.21233742
173	0x3e9ba4a0	0.30399036
174	0x3de6a33c	0.11261603
175	0x3db8dd38	0.09026569
176	0xbe17502b	-0.14776675
177	0xbbbe1240	-0.0058005154
178	0x3e99466c	0.2993654
179	0x3e49dbf4	0.19712812
180	0x3dc9dca4	0.09856537
181	0x3de7da44	0.11320928
182	0x3d341d88	0.043973476
183	0x3da1a390	0.07892525
184	0x3e749ecc	0.23888701
185	0x3e19e5c4	0.15029055
186	0x3e46b384	0.19404417
187	0x3e51b490	0.20479035
188	0x3e892512	0.26786095
189	0xbc890550	-0.016726166
190	0xbe1e88df	-0.154819
191	0x3de683f8	0.1125564
192	0xbdb24924	-0.08705357
193	0x3dfc893c	0.12330863
194	0x3d28dc00	0.041225433
195	0xbe066ddb	-0.13127844
196	0x3dcde218	0.100528896
197	0xbea9eef5	-0.33190122
198	0x3dc19268	0.09451753
199	0x3e05d5c2	0.13069823
200	0xbeba2741	-0.36358073
201	0xbe486e97	-0.19573437
202	0x3e8d17bd	0.27557173
203	0x3f00fe85	0.50388366
204	0x3f166c90	0.58759403
205	0xbf09d3a6	-0.53838575
206	0x3dd2cb60	0.10292697
207	0xbc23ba3e	-0.009993134
208	0x3ecba99f	0.39777848
209	0xbf7b2c91	-0.9811488
210	0x3d08379b	0.033256155
211	0xbf4741e6	-0.7783493
212	0xbe709397	-0.23493801
213	0xbee07a73	-0.4384342
214	0xbebd284e	-0.36944813
215	0x3ed958d8	0.42450595
216	0x3f292119	0.6606613
217	0x3e5e0c3f	0.21684359
218	0xbc9ec358	-0.019380257
219	0xbe09a366	-0.13441238
220	0x3ec32d95	0.38120714
221	0xbe90dc5a	-0.28293115
222	0xbec31412	-0.3810125
223	0xbed34a67	-0.41267702
224	0xbecfb9e0	-0.405715
225	0x3f2c16f1	0.67222506
226	0x3d2d5026	0.042312764
227	0xbdab3b11	-0.083608754
228	0xbe2e8984	-0.17044646
229	0x3f58ba95	0.846597
230	0xbaee9939	-0.0018203623
231	0xbeaf1a0e	-0.34199566
232	0x3d840b5c	0.06447479
233	0xbf27ec66	-0.6559509
234	0xbf11a713	-0.5689556
235	0x3ebe4016	0.3715827
236	0xbe6fc5e4	-0.23415333
237	0x3f53f91d	0.8280199
238	0xbf39fe69	-0.72653824
239	0x3e339a27	0.17539273
240	0x3e213ba9	0.15745415
241	0xbf17a722	-0.592394
242	0xbea80209	-0.32814053
243	0xbeac7700	-0.3368454
244	0xbebbffaa	-0.36718494
245	0x3f46a3a9	0.77593476
246	0x3f2524ad	0.6450909
247	0x3ed129e2	0.40852267
248	0xbe74ffac	-0.23925656
249	0x3f1ca52c	0.6118953
250	0x3ea2ad14	0.31772673
251	0x3e9a3e6d	0.30125752
252	0xbe6f1e11	-0.23351313
253	0x3f70b067	0.9401917
254	0x3f2301e7	0.6367478
255	0xbf10a86b	-0.56506985
